G_model.pth (torch, 31030 bytes, 13 tensors)

fe_layer.weight f4 [48, 1, 3, 3]
000000 3e 31 8e 3e e3 7b 9d be 0d 9d 3e be 1a de 36 bf
       0.27771944 -0.3075858 -0.18614598 -0.7143265
000010 cb 8e e8 be 91 e1 c4 be b6 d5 e6 be 00 25 20 bf
       -0.45421442 -0.38453344 -0.45084924 -0.6255646
000020 6a df 03 bf dd 9b 04 3f f7 fa d7 3e a4 b5 fa 3d
       -0.5151278 0.5180033 0.42183658 0.122416764
000030 10 20 30 3f 39 38 ae bc cf 27 35 3f 59 05 2a 3d
       0.68798923 -0.021267043 0.7076387 0.041509006
000040 98 6f 96 3e 19 13 02 3f 6c 78 f6 3e b9 09 2e 3f
       0.29382014 0.5081039 0.4813875 0.67983586
000050 a5 b9 38 3f 32 f4 02 bf 24 16 e4 3e 1c 30 30 bf
       0.7215827 -0.5115386 0.44548142 -0.6882341
000060 c4 a0 24 3f b1 b7 fa be 77 e6 42 3f 90 2c 84 3e
       0.6430781 -0.4896827 0.7613291 0.25815248
000070 06 48 b5 be 18 38 27 3f f3 82 e2 be 1d e6 b2 be
       -0.35406512 0.6531997 -0.4424053 -0.34941188
000080 32 11 58 3e b3 37 21 bf 85 0e 93 3e f7 64 3c bf
       0.2110031 -0.62975615 0.28722015 -0.7359156
000090 7f 35 6e bd 09 f2 11 be 46 c3 3c 3f e7 6a bf bd
       -0.058156487 -0.14252485 0.73735464 -0.09346562
0000a0 c5 00 4a be cc 7e 29 3f c8 23 d2 3c f5 70 1e bf
       -0.19726856 0.662091 0.025651827 -0.6189111
0000b0 97 4b 0d 3e 7b b2 20 bf 0d 3e 17 3f ff fc c6 bd
       0.13798366 -0.6277234 0.59079057 -0.09716224
0000c0 25 fc c6 be 54 1e 19 3f 59 1f 15 3f fd eb 06 be
       -0.38864246 0.598119 0.5825096 -0.1317596
0000d0 89 c1 93 be e6 1a 47 3f 8b 32 2c bf dc 47 45 be
       -0.28858593 0.7777542 -0.6726462 -0.19265693
0000e0 a0 4f c7 be fb 5b a4 3c 37 f0 3d 3f c2 27 25 3f
       -0.38927937 0.020063391 0.74194664 0.6451379
0000f0 d8 c7 f5 3e 04 d8 b5 3e 36 f2 df 3e a0 0e 3b be
       0.4800403 0.3551637 0.4373948 -0.18267298
000100 c4 1d 12 3f 90 b3 fc be c6 fe 6e 3e c3 7d 12 bf
       0.5707667 -0.49355745 0.23339376 -0.5722315
000110 d4 4e 12 bf f3 1c e2 be ba c8 d3 3e 33 90 8d bd
       -0.5715153 -0.44162712 0.4136408 -0.069122694
000120 a6 0b a1 3e 3c 36 36 3f 3f 86 d5 3e 21 cf db 3e
       0.314542 0.71176505 0.41703984 0.42931464
000130 c1 a0 33 3e e0 ff 81 3d 3e b4 4e bd 13 c0 b0 3e
       0.17541791 0.063476324 -0.05046486 0.3452154
000140 be 19 f9 3e b4 0c 08 3f 6b 57 ad be 18 19 db be
       0.48652452 0.53144383 -0.33855757 -0.42792583
000150 46 52 1a bf 87 a8 16 3e 89 93 36 be f0 d6 f4 3e
       -0.6028179 0.14712726 -0.17829718 0.47820234
000160 9a 27 f2 3e 2d fa b6 3e e7 29 03 bf 97 70 39 bf
       0.4729584 0.35737744 -0.5123581 -0.72437423
000170 05 7f 2e 3f a4 5b a7 bd 25 44 c6 3e 58 fa 28 3f
       0.68162566 -0.08171776 0.38723865 0.66006994
000180 87 1d 2e 3f e4 ab 24 3f 5f 20 65 be 9d eb 1d bf
       0.68013805 0.64324784 -0.2237563 -0.6168764
000190 73 dc 15 bf df 45 55 be 69 83 1e be 42 e0 0b 3f
       -0.58539504 -0.20827435 -0.15479816 0.54639065
0001a0 ef 2e 4c bf 50 bd bc 3c 2a 20 f5 3c 9f a3 0c 3f
       -0.79759115 0.02303949 0.029922564 0.54937166
0001b0 6b f3 63 3e 0e 44 bf be 3c 27 0d 3e bd c3 09 3f
       0.22260825 -0.3735661 0.13784498 0.538143
0001c0 e4 c8 0e be 30 83 d8 3d e3 5d 6a bd 81 bd 0f be
       -0.13943821 0.10571897 -0.057218444 -0.14037134
0001d0 ea 9b 4c bf a8 12 c1 be 3a 03 57 bf 4c f5 dd 3e
       -0.79925406 -0.37709546 -0.839893 0.4335121
0001e0 70 00 9c bd ee 58 b6 bd 94 c5 50 bf 78 c9 33 bf
       -0.07617271 -0.08903681 -0.8155148 -0.7022929
0001f0 b4 b6 a2 3c f1 16 17 3f a7 16 bb bd 72 dc 3b 3f
       0.01986251 0.5901938 -0.0913518 0.7338325
000200 20 cc f9 3e be a7 4d be 8b cb c8 be 3e 78 a0 be
       0.48788548 -0.2008352 -0.3921779 -0.31341738
000210 52 96 1d bf 8b 05 a0 3e a7 30 4c bf 6f c7 1b 3f
       -0.61557496 0.3125423 -0.7976174 0.60851187
000220 38 8a fb 3e c0 8f 9f 3e 77 99 16 bf b2 dc 04 3c
       0.4912889 0.3116436 -0.5882792 0.0081092585
000230 56 15 91 3d d5 ec 2c 3e 63 d8 a2 3d 42 b2 01 be
       0.07084148 0.16887219 0.07951429 -0.12665656
000240 85 d4 8e 3e 97 2a 9c be 6d 26 6d ba ba 3e fc 3e
       0.27896515 -0.30501243 -0.00090465584 0.49266607
000250 28 8b 16 bf 82 51 05 3e f8 2d c8 3d bf 08 63 bd
       -0.58806086 0.13019374 0.09774393 -0.055428263
000260 f2 ff ad 3e ec 72 51 3d a3 a7 3e 3f fb 92 f7 3d
       0.33984333 0.05113499 0.74474543 0.12088581
000270 b7 5c 86 be c9 6b c6 3c 71 c7 10 3e c0 59 38 be
       -0.2624261 0.024221318 0.14138581 -0.18002987
000280 f3 7b 03 bf 5a 9c 49 bd 05 8c 63 3e 26 cd 67 3e
       -0.51361006 -0.049221374 0.22221382 0.22636852
000290 d6 e2 17 bf 8a 0d fb 3e 2d 49 48 3f 17 97 9b be
       -0.593305 0.49033767 0.7823666 -0.3038871
0002a0 04 dc 81 3e 51 56 3e 3f ef d8 6d 3e 33 7f 01 3f
       0.2536317 0.7435046 0.23227285 0.50584716
0002b0 2f e9 d3 3e 39 06 0d be 37 7b e0 be 1a 32 31 bf
       0.41388842 -0.13771905 -0.43844005 -0.69217074
0002c0 fd 32 ed bd af 88 0f bf 3e a6 80 3e 24 7b dd bd
       -0.11581991 -0.5606794 0.25126833 -0.10814503
0002d0 c5 31 f0 bd f6 9b c0 be 1c 67 d9 3e 55 13 cb be
       -0.11728243 -0.3761899 0.4246148 -0.39663187
0002e0 5b cc aa be 18 73 3f 3e 9e 1a 29 bf c8 27 a1 bd
       -0.33359036 0.18696249 -0.6605624 -0.07868916
0002f0 00 da f1 bb 78 9c ed 3d 6a 9d 2a 3f 24 4e 90 be
       -0.007380724 0.1160211 0.66646445 -0.28184617
000300 f3 78 50 3d a2 c2 3e be e4 2d 1e bf 74 a3 89 3e
       0.050896596 -0.18628934 -0.61788774 0.26882517
000310 e0 d3 e6 3e db 35 1d be 6b f9 36 3f 4f ee 22 3f
       0.45083523 -0.15352575 0.7147433 0.6364488
000320 ba bd 1c bf 81 60 8a 3d 67 2f 4a 3f ee 8f 37 3f
       -0.61227 0.06756688 0.7897858 0.71703994
000330 99 e3 bc 3e 07 1b e5 3e ea ec df bc 6e 76 97 bd
       0.36892393 0.44747183 -0.02733465 -0.073956355
000340 b6 52 c4 be 65 51 e0 3d 37 55 be 3e fb 18 46 bf
       -0.38344353 0.10953025 0.3717439 -0.7738187
000350 d5 5b 1d bf be e8 08 bf 79 ca 5d 3e 9d 84 d1 bd
       -0.6146825 -0.53480136 0.21659268 -0.10230372
000360 2e 65 13 3e 84 fe 8f 3e 2a c2 f0 be 8a 4a ad be
       0.14394066 0.28123868 -0.47023135 -0.3384593
000370 5e 1d a8 be 4b 78 38 bf 5c 50 7e be 13 a0 c8 3e
       -0.32834905 -0.7205855 -0.24835342 0.39184627
000380 db c3 30 bf 95 51 45 3f 05 88 34 3f ab 41 cd be
       -0.6904885 0.7707761 0.7052005 -0.40089163
000390 ed a1 27 3d bf 09 c8 be 05 30 1b bf 50 00 2f 3f
       0.04092591 -0.39069936 -0.60620147 0.6835985
0003a0 22 cd d4 be 2b f7 e4 3e c2 f3 eb be 65 91 4b bf
       -0.41562754 0.44719824 -0.4608441 -0.7951873
0003b0 5e df 16 3f ad fe 0a 3f 62 f5 e7 3d ee 2d 82 3e
       0.5893458 0.54294854 0.113261 0.25425667
0003c0 90 c5 82 bd 61 35 37 bf fb c9 08 bf 21 b6 30 3d
       -0.06385338 -0.71565825 -0.534332 0.04314244
0003d0 51 a4 16 3f 9e e0 5d be 1d 36 b7 3e bd 89 93 3d
       0.58844477 -0.21667716 0.35783473 0.07204006
0003e0 16 14 81 be 7f 84 2a bf c9 70 de 3e c2 bb fa 3e
       -0.25210637 -0.66608423 0.43445423 0.48971373
0003f0 73 c4 38 3f b7 b0 05 3f b8 5d 73 be 4f b5 38 3f
       0.7217476 0.5222277 -0.2376622 0.72151655

fe_layer.bias f4 [48]
000000 24 ad 21 3b 60 57 fb bb 3d 55 51 ba c5 28 85 bc
       0.002466985 -0.007670328 -0.0007985419 -0.016254792
000010 fd 7d b4 3c 01 52 e0 ba a0 76 03 bb 5f 98 95 bc
       0.022032732 -0.0017114283 -0.002005972 -0.018261133
000020 d8 4a 0e b9 70 36 34 3c 1b 00 83 3b c5 15 0c bc
       -0.00013570057 0.010999307 0.0039978153 -0.008550112
000030 bf 0c 9b bc 89 36 84 3c c7 26 bd bb 6f b5 b9 3c
       -0.018926976 0.016139286 -0.005772445 0.022669522
000040 d7 58 ce 3c c2 49 a9 3d c7 30 97 3c 32 9d 5c bc
       0.025188847 0.08266021 0.018455876 -0.013465213
000050 1a e6 da bb 2f 0f 55 bc 13 9b 39 ba 1b b4 2d bc
       -0.0066802623 -0.013004108 -0.0007080298 -0.0106020225
000060 fc c2 58 bc f8 32 74 3c 15 d6 87 bd 4d 01 6c 3b
       -0.013230082 0.01490473 -0.0663263 0.0036011518
000070 fb b7 bb bb 98 1f 41 bd db e3 30 bc 79 27 02 bb
       -0.0057287193 -0.04714927 -0.0107965125 -0.0019859953
000080 0a 5b 12 bb 55 78 21 3c 05 09 c3 bb 6a 0f 7e ba
       -0.0022332096 0.00985535 -0.005952003 -0.0009691628
000090 3e c7 80 bb 77 6b 24 3c 59 71 ed bc 27 8b 4b 3c
       -0.0039300015 0.010035387 -0.028984712 0.012423313
0000a0 c7 e0 8f ba b2 cd 0a bd ff ea 29 3b 8f 81 96 3a
       -0.0010977023 -0.033887573 0.0025927422 0.0011482703
0000b0 34 7e 9d bc 63 c1 5b bc 3f ea 70 bb de 9e 3b 39
       -0.019225217 -0.013412806 -0.0036760715 0.00017892892

sh_layer.weight f4 [12, 48, 1, 1]
000000 fe ee d5 3d fc b2 1d 3e 74 90 b9 be 6f 9a 27 be
       0.10445975 0.15400308 -0.3624302 -0.16367505
000010 7c db a6 3e 08 ac 98 3d ad ec a5 be 92 41 10 3d
       0.32589328 0.07454687 -0.32407132 0.035218783
000020 64 7c 8f be 0e e8 9a be 46 c1 95 3e 66 a8 97 be
       -0.2802459 -0.3025517 0.29249018 -0.29620665
000030 69 19 63 bd 0f eb 84 3d f7 c9 9a bd d1 bc 4d 3e
       -0.055444155 0.06490146 -0.07558053 0.20091559
000040 ea ef 0f be 19 cb b8 3d 55 29 a4 bd d0 bf c2 bc
       -0.14056364 0.09023113 -0.08015696 -0.023773104
000050 80 37 44 be da d4 c0 be b1 e0 0a 3e b1 0f 98 be
       -0.19161797 -0.37662393 0.13562275 -0.29699472
000060 bd 40 20 bd d1 ad 8b be 59 dd 0f 3e 1e 70 82 3e
       -0.03912424 -0.2728105 0.14049281 0.25476164
000070 2d 46 69 be a6 06 97 3e 53 b7 ac 3e 5b ca 8d 3e
       -0.22780676 0.2949726 0.33733615 0.27693447
000080 5d 26 b3 be 38 bc 4c 3e f8 f8 71 be 8a b4 9b 3e
       -0.34990206 0.19993675 -0.2363013 0.30411178
000090 b4 06 c0 3d ab 7c a3 be 7d eb 8f be e6 e4 05 3b
       0.093762785 -0.31931052 -0.2810935 0.0020430624
0000a0 32 09 9b be 10 7b 34 bd 9e c8 1d be f0 69 40 bd
       -0.30280453 -0.044062674 -0.1540856 -0.04697603
0000b0 9d c3 9e be e7 5b 4b be 0d 17 d6 bd d8 48 70 be
       -0.31008616 -0.19859277 -0.10453615 -0.23465288
0000c0 82 43 a2 be ed dc e2 3d 2c 34 20 3e a2 9c 9d be
       -0.3169213 0.110772945 0.15644902 -0.30783564
0000d0 b0 39 8b 3e 62 d5 10 be 11 4f 61 3e e9 ca 68 3d
       0.2719245 -0.14143899 0.22002818 0.056834135
0000e0 f5 21 b4 be 15 0c 0d be cb d6 66 3d 95 b8 56 3d
       -0.35182157 -0.1377414 0.056357186 0.052422125
0000f0 9e a7 8c 3e 7a 8c 19 3e ff 59 b0 3d f4 da 02 3e
       0.27471632 0.14994994 0.086109154 0.12778836
000100 09 de 8f 3e 2b cc 9d 3e ad 58 0d 3e 48 d9 f6 3d
       0.28099087 0.3081983 0.13803358 0.12053162
000110 25 0b 01 bd a0 a8 3d bd c7 be d2 3d db ac a0 bc
       -0.03150477 -0.04630339 0.10290294 -0.019613674
000120 c4 b1 27 3d 5a 0d c1 bd c0 f5 f5 bd 72 5b 09 3e
       0.040941015 -0.09426375 -0.12009764 0.1341379
000130 66 e2 97 3e 87 dc 4c bd 24 15 41 3e 1d 9a f7 bc
       0.29664916 -0.050015 0.18855721 -0.030224854
000140 02 64 c9 bd 69 4e 57 be 42 bc 00 be 18 f1 fe 3d
       -0.09833528 -0.21026005 -0.12571815 0.12448329
000150 fb 29 13 3e b0 97 bc be 86 f0 41 3e 10 e9 50 3b
       0.14371483 -0.36834478 0.18939409 0.0031877197
000160 2d cb 86 be 90 37 7d 3e 98 c5 40 bd fc 75 81 3e
       -0.26326886 0.24728227 -0.04706344 0.25285327
000170 7f eb 99 3e 33 6f 9b 3d 22 40 88 3e 07 21 63 bd
       0.30062482 0.07589569 0.2661143 -0.05545142
000180 db 84 81 be 9a b3 d1 3d 95 08 13 3e 3c c8 7f 3e
       -0.25296673 0.102393344 0.14358743 0.24978727
000190 f3 34 64 be 16 a1 ba 3c 11 d9 44 3e 95 f0 9d 3e
       -0.22285824 0.02278189 0.1922343 0.30847612
0001a0 fd 82 94 be bb 37 46 3e 20 8b a9 be 15 3f f6 3c
       -0.29006186 0.19357197 -0.33113956 0.030059377
0001b0 98 db 7f be 85 20 7c be e7 b8 8e 3e 9e 16 c8 3d
       -0.24986112 -0.2462178 0.27875444 0.09769939
0001c0 27 af 9c 3d 5a 35 a4 3e 3c 91 43 bd fe b4 82 3e
       0.07650595 0.32071954 -0.04774593 0.2552871
0001d0 d7 93 87 bd 2a 5f 57 3e 8c eb 4a 3e 5a 8a 7b 3e
       -0.06619995 0.21032396 0.19816417 0.24564496
0001e0 7e f1 bd 3d 59 4b 69 bd 55 e7 52 be a5 61 58 3e
       0.092745766 -0.056956623 -0.20596059 0.21130998
0001f0 4c f8 55 3e 41 5a 5c 3e 56 be 52 be c2 cb 8a be
       0.20895499 0.21518804 -0.2058042 -0.2710858
000200 d9 f8 76 be 62 15 9a be 02 9a 60 be c0 a0 a0 3e
       -0.24118365 -0.3009444 -0.2193375 0.31372643
000210 b7 80 98 3e 28 a1 f2 3d 9c 20 86 bb b7 53 32 3e
       0.29785702 0.11847144 -0.004093243 0.17414747
000220 c3 93 93 3c a8 2c 5d be 90 fd ad 3e 09 12 11 be
       0.018014794 -0.21599066 0.33982515 -0.14167036
000230 e4 b5 8a 3e 47 32 a5 3b 5f 44 a6 be 4b 7f 27 be
       0.27091897 0.005041394 -0.32474038 -0.16357152
000240 41 b3 9a be 14 db 25 be 6a cb 93 3e 96 5f 13 bd
       -0.30214885 -0.16196853 0.2886613 -0.03597983
000250 38 4b 3c bd a8 bd 50 bd de 6c 63 be 9b 11 ec 3d
       -0.04597017 -0.05096212 -0.22209498 0.115267955
000260 50 e3 dd 3c 0d 93 b0 3d ae b4 6b 3e 5c 17 17 3d
       0.02708593 0.08621798 0.23018143 0.03688751
000270 e3 df b4 3d 35 41 5c bd e6 1f 4e be 3f c0 dc 3c
       0.088317655 -0.053773124 -0.20129356 0.026947139
000280 d1 09 2e 3d 2e a6 70 be 5c 48 7e be 57 14 bb 3b
       0.04248983 -0.23500893 -0.2483229 0.005709212
000290 d4 40 36 3e c8 c0 48 3e d6 6e 85 be 58 09 75 3d
       0.17798167 0.1960479 -0.26061124 0.059823364
0002a0 b6 cd 13 be 0b 53 0a be 01 07 f9 bd 07 d4 a3 3d
       -0.14433941 -0.13508241 -0.12159539 0.079994254
0002b0 3b 95 83 3e f5 65 a4 3e e3 3c aa 3e 6d 24 75 3e
       0.2569979 0.32109037 0.33249578 0.23939677
0002c0 93 64 a7 3d 81 69 bd 3c 3d 95 92 3e 72 2a 54 be
       0.0817348 0.023121597 0.28629485 -0.20719317
0002d0 80 6e 8b 3e ca 2b 99 be a3 68 da 3d 4e 5a 94 3e
       0.27232742 -0.2991622 0.10664489 0.28975147
0002e0 b3 27 9e 3d 77 5f 16 be 56 42 92 be fb c3 82 3e
       0.07722416 -0.14684854 -0.28566235 0.25540146
0002f0 43 06 f5 bd 8f 46 b0 3e 7b ce 4e 3e c0 4e 0a 3e
       -0.11964085 0.34428832 0.20195954 0.13506603
000300 48 41 26 3e 29 92 37 be 0b 6f 04 bd 00 c1 8f be
       0.1623584 -0.1792685 -0.03233246 -0.28076935
000310 e8 ba 47 3e 5c 8f d8 3d 60 9c 88 be 3e 66 b4 be
       0.19504893 0.10574219 -0.26681805 -0.35234255
000320 43 46 8e 3d 91 a8 87 3e 04 8e a3 be 2c ad 2f be
       0.06946995 0.26495793 -0.31944287 -0.17155904
000330 b2 06 aa 3e 6e aa 4f be 05 3d 00 3e 4d 07 58 bc
       0.33208233 -0.20279858 0.12523277 -0.013185334
000340 7c 09 9f be 4c be 84 3e b4 ba 59 be 86 d0 8f 3e
       -0.31061924 0.25926435 -0.21262628 0.28088778
000350 a7 6a 7b 3e 81 5f a7 3c 88 6f 2f 3c a3 1f 8f 3e
       0.24552403 0.020431282 0.0107077435 0.27953824
000360 f9 90 62 be 12 64 6d 3e 0e df 66 be d1 2f b0 be
       -0.22125615 0.23182705 -0.22546026 -0.3441148
000370 69 88 4e bc 44 62 30 be f6 52 4b 3e 3b 84 91 be
       -0.012605765 -0.17224985 0.19855866 -0.28421196
000380 01 66 1e be bf ac c8 3d 46 1b bd 3d 44 74 8a 3e
       -0.15468599 0.09798574 0.092337176 0.2704183
000390 5e d1 09 be 26 6b 52 3e ef 0d 36 3e 37 ad 97 be
       -0.13458773 0.20548686 0.17778753 -0.2962434
0003a0 6b 09 62 be fa c4 fc be b3 b3 aa 3e 8b 59 ca 3e
       -0.22073905 -0.4936903 0.33340225 0.3952144
0003b0 6a 22 ec bd ab b8 27 be 38 c1 b6 bc b7 ed 01 3e
       -0.115300015 -0.16379039 -0.02230893 0.12688337
0003c0 df 52 f3 bd 51 84 58 be 3a f8 bf 3d 43 e8 73 3e
       -0.11881041 -0.21144225 0.09373517 0.2381907
0003d0 38 7e 82 3c 5c cc 7d bd 33 f5 90 3e 8f cc 61 be
       0.015929326 -0.06196247 0.28312072 -0.22050689
0003e0 4c b3 f1 bc fb d1 52 bc 5c d8 13 be 49 72 04 bd
       -0.02950444 -0.012867446 -0.14438003 -0.032335553
0003f0 95 a1 d0 3d f3 8a ae be 9a f7 81 be 54 99 0b be
       0.10187069 -0.34090385 -0.25384218 -0.13632709

sh_layer.bias f4 [12]
000000 74 93 44 3b b3 b5 49 bb cd c2 70 bb 87 aa f3 bb
       0.0029995115 -0.0030778467 -0.0036737204 -0.0074361
000010 71 23 0f bb 56 39 11 bc a8 27 0e bb 6a 98 ed ba
       -0.0021841193 -0.008863768 -0.0021691117 -0.0018127088
000020 b4 99 3f bb 9c b4 47 3b 9d b0 91 bc 6a 64 14 3c
       -0.0029235901 0.0030472642 -0.017784411 0.009057144

map_layer1.weight f4 [12, 12, 3, 3]
000000 f2 f3 ad bd 92 de ef bd a0 e8 ad 3d e5 e0 64 bd
       -0.084937945 -0.11712374 0.08491635 -0.05587854
000010 64 ec 19 be 52 fd 96 bd af 4b 45 3e 1c 47 3e be
       -0.15031582 -0.07372536 0.19267152 -0.18581814
000020 0b f9 03 3e b2 3d 06 3d 7c 34 98 bd 5e 66 9d 3d
       0.12887971 0.03277368 -0.074318856 0.076855406
000030 24 9a 2c be 76 85 21 3e a3 eb 77 3d 32 d9 60 be
       -0.16855675 0.15773568 0.060527455 -0.21957853
000040 49 b7 ad bc 33 49 60 bd 63 a1 73 3d f0 92 9c 3d
       -0.021205561 -0.05475731 0.059480082 0.076452136
000050 45 3d 16 be c2 cb 64 3e fd f2 86 bd be d9 5e 3d
       -0.1467181 0.22343352 -0.06589315 0.054406874
000060 bb 5e 44 3e ff 4e d7 bd 38 02 9f 3d 04 d6 bb bd
       0.19176762 -0.10513114 0.07764095 -0.091716796
000070 2a 83 8b 3d 4e 97 af bd 47 c1 4a bd aa 09 59 3d
       0.06812127 -0.08573781 -0.04950073 0.052987732
000080 87 3c 86 3d f6 bd e5 bb b6 83 85 bb 72 ed 9c 3c
       0.065545134 -0.0070111705 -0.004074539 0.019156191
000090 55 a8 47 3e 4f a1 4b 3e 01 e9 ea bd 61 1f 58 be
       0.19497807 0.19885753 -0.11470223 -0.2110572
0000a0 c5 42 73 bd c7 02 1b 3e b2 ad 26 3c 7c 7e 7a bd
       -0.05938985 0.15137778 0.010173248 -0.06115578
0000b0 6b 11 22 3e c5 78 fe bd 4e 90 16 be f4 7c 16 3e
       0.15826957 -0.12425379 -0.14703485 0.14696103
0000c0 9b c2 95 3d bd db 0e be 8c da 75 3e 7b b3 bf 3d
       0.07312509 -0.13951011 0.2400915 0.09360405
0000d0 0f 24 0a 3e 61 3e 69 be 9f e6 56 3d d0 8d 4d be
       0.13490318 -0.22777702 0.05246603 -0.20073628
0000e0 55 bd 1f be 42 27 25 3e b3 d2 ad 3d 72 ae 12 bc
       -0.15599568 0.16128257 0.08487453 -0.008952724
0000f0 08 56 c5 3d 9e 6b 80 3d 2b 03 76 3e ff 70 88 bd
       0.0963555 0.06270526 0.24024646 -0.06662177
000100 18 0b 95 bd be 56 7a 3d f4 ab c6 bc bb c4 f5 bd
       -0.072775066 0.06111788 -0.024251916 -0.12000414
000110 13 f0 28 3e 4a 82 27 be f5 b2 40 be 63 8d 8e 3d
       0.16497831 -0.16358295 -0.18818267 0.06960561
000120 c4 bd f7 bd fe 01 01 bd 19 1e f0 bd 17 a8 ac 3d
       -0.12096742 -0.03149604 -0.11724491 0.08430498
000130 2c 76 05 3d 0b f3 ac 3d f5 95 f5 3d 23 f0 5a be
       0.0325834 0.08444794 0.11991493 -0.21380667
000140 eb 17 71 3e 75 76 4a be d2 a4 66 be 3e cc ae bd
       0.2354428 -0.1977175 -0.22523811 -0.0853505
000150 fe e9 1c 3e cc fd 95 3d 27 12 de 3d ca b4 12 3e
       0.15323636 0.073237985 0.10843306 0.14326778
000160 e0 0e 97 3d 4b 51 06 3d d2 e7 31 3d 65 2b 1f be
       0.07375884 0.03279237 0.04343397 -0.15543897
000170 d8 d7 61 bd 51 ab 02 3d 0e 85 1b 3d c7 05 a7 bd
       -0.055137485 0.03190166 0.037968688 -0.08155399
000180 b3 12 6f 3d d1 29 42 be 71 55 17 be fa 63 a2 bd
       0.058367442 -0.18961264 -0.14778687 -0.07929225
000190 2a 09 0a be 7c 7f 2d 3e 10 2a 12 3d ab 1d 14 3e
       -0.13480058 0.16943163 0.035684645 0.14464442
0001a0 cf b0 4a 3d 3a d0 cc bd ce 3c 6c 3d bf 89 32 be
       0.049485024 -0.100006536 0.057675175 -0.17435358
0001b0 01 a4 fd bc 1a fc 7d 3e b1 fb 8a 3d 79 2d 52 be
       -0.030961992 0.248032 0.067862876 -0.20525159
0001c0 da db 10 3e 5d fd 41 be c6 7e 61 be 8d 23 2e be
       0.14146367 -0.18944307 -0.22021016 -0.17005749
0001d0 96 bf d0 bd 7a 3a 6a 3e 99 02 12 bd ff 2b 1f be
       -0.10192792 0.2287387 -0.03564701 -0.15544127
0001e0 bc ee 0e 3e 76 12 4d be d5 98 01 3e 60 60 f6 bc
       0.13958257 -0.20026574 0.12655957 -0.030075252
0001f0 38 34 9e bd 99 18 3e 3e 08 9d 8a bd 31 62 50 3d
       -0.07724804 0.18564071 -0.067682326 0.050874893
000200 a2 e3 2e be bd 44 07 be c9 bb 87 3d de a5 1f bc
       -0.17079023 -0.13209815 0.06627614 -0.009744136
000210 95 6b 4d 3e 6c 4a 26 be e8 ac 4d 3e 15 78 03 3d
       0.2006057 -0.16239327 0.2008549 0.03209694
000220 d6 8b 37 3e 92 6f 3f 3e d1 6a 0d 3e 3c 2e 4b be
       0.17924437 0.18694904 0.13810278 -0.19841856
000230 22 b1 5b 3e 91 e6 07 be f6 fb 1b bd 92 a3 27 3e
       0.2145429 -0.13271548 -0.038082086 0.16370991
000240 41 db b8 bd bb 16 ac bd ac bd 39 be 95 54 a2 bd
       -0.09026194 -0.08402773 -0.1813876 -0.07926289
000250 b6 59 1f be 21 05 63 3e 29 6c 15 3e bd 66 de bd
       -0.15561566 0.22169925 0.14592041 -0.108594395
000260 28 53 31 3e 37 42 10 be 4a 61 4e be 2b bb 2c bd
       0.17316878 -0.14087759 -0.201543 -0.042170685
000270 d2 ee 73 3d 4f a7 9c bd a2 38 31 3e d4 90 0d 3e
       0.05955393 -0.07649099 0.1730676 0.13824779
000280 3e 60 35 be 9a 7f 71 3e 2a d1 4e 3e 34 c2 1b bb
       -0.17712495 0.23583832 0.20196977 -0.0023766877
000290 d5 fd f6 3d 19 06 f4 3d 5b 9a ae 3c 6a 77 eb bc
       0.12060133 0.119152255 0.021313837 -0.028743464
0002a0 c8 08 36 be e9 f6 80 bd c5 d1 51 be 4e a6 bf 3d
       -0.17776787 -0.062970944 -0.20490177 0.09357892
0002b0 64 38 3c 3e 8a 08 0b be d8 0d b3 bd 7f 1f 1c 3e
       0.18380886 -0.13577476 -0.08742875 0.1524639
0002c0 7d e6 ad bd a2 f5 45 3e ae fc f4 bd e5 39 69 3d
       -0.08491228 0.19331983 -0.11962257 0.05693998
0002d0 12 a4 20 be 53 90 da 3d 42 70 68 be d5 05 4b 3e
       -0.15687588 0.10672059 -0.22699073 0.19826443
0002e0 46 47 9c bb b4 05 d9 bd 26 b2 fe 3d a9 ee 31 3e
       -0.0047692386 -0.10596791 0.12436323 0.17376198
0002f0 b5 6c d9 bb 07 f4 86 3e c7 1d d6 bd ff 7e 3f 3d
       -0.0066352733 0.26358053 -0.10454898 0.046751972
000300 76 b8 18 3d ef 62 5f bd 0a 18 6b 3e d3 10 3f be
       0.03728529 -0.05453771 0.22958389 -0.18658762
000310 4b a1 a9 bd ec 89 1a be e4 12 4d 3d 4a 17 6e 3d
       -0.08282717 -0.15091676 0.050066844 0.05812768
000320 8a 20 97 bd d1 58 b6 bd f3 08 cb 3d 39 e9 2e bd
       -0.07379253 -0.08903659 0.09913816 -0.042702887
000330 bb 49 0b be d1 0d c0 bd 9d 72 60 bd 37 0c 17 3e
       -0.13602345 -0.09377635 -0.054796804 0.14750753
000340 50 25 49 3e 67 f3 47 be d6 d3 b5 bd ce 00 4a bd
       0.1964314 -0.19526444 -0.08878295 -0.049317174
000350 2b f0 1a 3e 44 77 90 bd 58 47 ef bc 06 17 59 be
       0.1513068 -0.07053998 -0.029208824 -0.21200189
000360 09 3b bc 3b a6 86 6f be 34 69 25 be 50 bf 99 3d
       0.005744342 -0.23391208 -0.16153413 0.07507193
000370 04 4f 2f 3d b4 03 54 3d e0 c7 28 3e c4 3b d4 3d
       0.042799965 0.051761344 0.16482496 0.10362962
000380 10 d6 29 3d b3 b6 fb bc ef eb c9 3d db dd 3c 3e
       0.04146391 -0.030726766 0.09859454 0.18444006
000390 d2 f4 de 3d b5 a7 18 3e c3 af a8 3d 24 c5 43 bd
       0.108865395 0.14907725 0.08236649 -0.04779543
0003a0 57 b6 0a 3e bb b5 5a be 49 25 3e 3e 75 df 1b be
       0.1354612 -0.21358387 0.1856891 -0.15221961
0003b0 68 e0 3c bd 62 bf 43 be 1f bd 94 bd a2 66 2e 3d
       -0.046112448 -0.19115975 -0.072626345 0.042578347
0003c0 d3 36 14 3e e2 eb 1b 3e 36 31 e2 bd 64 c4 b4 bd
       0.14474039 0.15226701 -0.110445425 -0.08826521
0003d0 c2 dc f1 3c fd fd f9 3d 03 15 1c be f9 ce 53 3e
       0.02952421 0.122066475 -0.1524239 0.20684423
0003e0 85 ee 42 be eb b6 04 bd 6d 4b 05 be dc a8 01 3e
       -0.190363 -0.032401007 -0.13017054 0.12662071
0003f0 ef cf 49 3e d7 83 93 bb 75 0d f7 3d d9 5c 79 be
       0.19708227 -0.0045018005 0.120631136 -0.24351825

map_layer1.bias f4 [12]
000000 15 6a 6f 3c 11 81 f7 bb 3e cd 28 3c 13 93 39 bc
       0.014612694 -0.0075532277 0.01030284 -0.011326569
000010 9e 20 12 bd a2 8f 9f 3c 1f 64 80 bc 07 06 04 bc
       -0.035675637 0.01947767 -0.015672741 -0.008058078
000020 c4 91 5e bc 9d 4d 94 bc 2b 99 43 3c 15 69 cc bc
       -0.013584558 -0.018103415 0.011938374 -0.02495245

map_layer2.weight f4 [12, 12, 3, 3]
000000 54 92 af 3d 3d 6f b7 3d fd 41 10 be 16 74 ac bd
       0.08572832 0.08956764 -0.14087673 -0.08420579
000010 aa 35 60 3c a9 18 21 be 22 5e 4b 3d af 33 17 be
       0.0136846695 -0.15732063 0.04965032 -0.1476581
000020 94 58 35 bc 78 6d 37 3d 47 93 c5 3a 21 94 70 be
       -0.011068482 0.044782132 0.0015073799 -0.23494007
000030 a5 35 b4 bd f7 17 20 be 9f 2f 41 be 51 47 06 3d
       -0.087992944 -0.15634142 -0.18865822 0.032782856
000040 9f 3b 5a be 5f fb 2a be 60 3d 20 3e 7e 56 c9 bd
       -0.21311806 -0.16697453 0.15648413 -0.0983095
000050 6c e4 5b be f2 10 46 3e 75 ef 07 be a6 c5 7b 3e
       -0.21473855 0.19342402 -0.1327494 0.24587116
000060 a6 bb 06 be 97 5d 49 be 74 87 30 be 44 31 1a be
       -0.1315752 -0.19664608 -0.17239171 -0.15057856
000070 4a 03 80 3d 9a 5c 12 be 09 8e f8 3d e5 53 15 3e
       0.06250627 -0.14293137 0.12136466 0.14582784
000080 78 36 22 3e 2c 3f 0d 3e 46 c4 3a be 41 43 05 3d
       0.1584109 0.1379363 -0.18238935 0.03253484
000090 84 b2 13 3d d9 80 f4 3d 86 34 4b 3e d5 f6 12 3e
       0.036058918 0.11938638 0.19844255 0.14351971
0000a0 0a 19 50 bd db 6e f8 bc 69 44 3c be 34 eb b3 bc
       -0.05080513 -0.030326298 -0.18385471 -0.02196274
0000b0 42 ca 5c bd 22 df 3b 3d 63 34 da bc c8 05 2a be
       -0.053903826 0.045867093 -0.026636308 -0.16603768
0000c0 43 de 30 3e 85 cf 87 bd 2d 7f 17 3e e0 9b 65 be
       0.17272286 -0.06631378 0.14794607 -0.22422743
0000d0 b5 1e 57 3e 8c 0f 54 3e 03 69 87 3c 37 50 02 be
       0.21007808 0.20709056 0.016529566 -0.12725912
0000e0 15 75 01 bb 94 df 5d 3e 66 6f f3 bd 28 56 14 be
       -0.0019753624 0.2166732 -0.11886482 -0.14485991
0000f0 ea 4d 15 be 11 82 27 3e 80 7c 49 bd c5 b1 0b be
       -0.14580503 0.1635821 -0.049190998 -0.13642032
000100 dd 0f 4d 3d 22 3d 4f be 3f d8 23 be 1b 2d f7 3b
       0.050063957 -0.20238164 -0.1600046 0.007543219
000110 70 8f 5e be 1d 5a 52 3e 2f 9f 47 3c 3b 4c 23 be
       -0.21734405 0.20542188 0.012183948 -0.15947048
000120 3a c6 3a be f8 55 4c be e6 dc 17 be 9a 62 02 be
       -0.1823968 -0.1995467 -0.1483036 -0.12732926
000130 4e bb 57 bd 3e 3c 2c be 85 a2 b9 bd f2 3f 39 3e
       -0.052668862 -0.16819856 -0.09064201 0.180908
000140 87 c7 34 be 60 28 78 be 4d 75 9c 3c 81 dd 05 be
       -0.17654239 -0.24234152 0.019098902 -0.13072778
000150 da 49 58 be 10 3f 73 bd ab b5 c0 bd 22 86 53 3e
       -0.21121922 -0.059386313 -0.094096504 0.20656636
000160 ac 90 e1 bd fd 20 b4 3c 04 85 d3 3d 27 44 44 3e
       -0.11013922 0.021988386 0.10328105 0.19166623
000170 1d 1c 32 3d 05 03 1c 3d 19 eb 00 be b7 3b a5 3d
       0.043483842 0.038088817 -0.12589683 0.0806803
000180 d4 d1 11 3e f3 c7 bd bd 4e f5 c9 3d 46 08 02 bd
       0.142402 -0.09266653 0.09861241 -0.03174617
000190 b7 df de 3d a7 6c 19 3e 52 df 31 3d 65 25 bf bd
       0.10882514 0.14982854 0.043425865 -0.09333304
0001a0 16 e5 8c bd b7 51 01 3b 77 c7 fc bd 89 87 6a be
       -0.06879632 0.0019732544 -0.123427324 -0.22903265
0001b0 3b 7d 2a 3e 37 d1 44 3e 4a 56 ee 3d fa cc 22 be
       0.16649334 0.19220434 0.11637552 -0.15898505
0001c0 b1 3a 3a be 94 dc 80 3e 48 2d 1d be 9c 41 d3 3c
       -0.18186451 0.25168288 -0.15349305 0.02578812
0001d0 ea 45 91 3d 06 77 4a be 83 71 ef bd d0 b0 39 bc
       0.07093413 -0.19771966 -0.116915725 -0.011333659
0001e0 a2 1f 42 3e 25 0b 3f 3e 5a 3d 18 bd a6 bd 80 bd
       0.1895738 0.18656595 -0.037167884 -0.062861726
0001f0 42 86 75 bd d2 8b 09 3e 5e 62 c5 bd e2 d2 23 be
       -0.05994249 0.13432243 -0.09637903 -0.15998414
000200 4e b3 34 bc fc 26 fb 3d 53 1d 6f 3d ff e2 b4 3d
       -0.011029078 0.12263295 0.058377575 0.088323586
000210 91 df d6 3d 0c 04 97 be c3 8c 00 be 87 ac 16 3d
       0.10491861 -0.29495275 -0.12553696 0.03678563
000220 97 09 3b bd 21 c9 00 3d 66 74 7d 3e ab eb 0f 3d
       -0.045663442 0.03144181 0.24751434 0.03513686
000230 51 70 3e bd c7 21 85 be 7c ce 0a bc 10 2b 36 3e
       -0.046493832 -0.26002333 -0.008472081 0.17789865
000240 d3 23 0c be 1c c3 c8 bd 2d 30 17 3e 38 42 ae bc
       -0.13685541 -0.09802839 0.14764471 -0.02127181
000250 e7 36 48 3e 84 66 0c 3e 33 8c 20 3e e9 42 1c 3e
       0.19552194 0.13710982 0.15678482 0.15259899
000260 d9 be 78 bd ba 46 d1 bd be a6 a7 3c 7c 6b b4 bd
       -0.06072888 -0.10218568 0.020465251 -0.088095635
000270 9f c7 53 be 1f a6 b5 bd 32 f3 72 3c ae 0c 36 be
       -0.20681618 -0.08869576 0.01482849 -0.17778274
000280 2e a7 38 be 91 9e d9 3d 5e 49 4b be cd 5f 7f bd
       -0.18032524 0.10625947 -0.19852206 -0.062347222
000290 67 b6 08 3e 0e d3 61 3e b3 34 6c 3e 89 4f f5 bc
       0.13350831 0.22053167 0.23066978 -0.029945152
0002a0 7a e0 0b 3d b0 40 f6 bd 05 44 9e 3d dc 2f 2b 3e
       0.034149624 -0.12024057 0.077278174 0.16717476
0002b0 98 fd a4 bd 9d 25 c4 bd a5 85 53 bc 5b a4 fa 3d
       -0.08056182 -0.09577487 -0.012910281 0.122383796
0002c0 3e 46 b4 bd d4 a5 da 3b dd 04 d0 3d ac 48 bb bd
       -0.0880246 0.0066726003 0.101571776 -0.091447204
0002d0 42 6e 5a be b2 81 aa 3d 84 7e b3 3d b0 da f4 3d
       -0.21331123 0.08325519 0.08764365 0.11955774
0002e0 ac 2a 3c 3e 38 b0 b6 bd a5 2e 2a be f1 4c 41 bd
       0.18375653 -0.0892033 -0.16619356 -0.047192518
0002f0 83 be 9b bc 33 02 a0 bb e7 ab aa bd e5 54 6c 3c
       -0.019011742 -0.0048830747 -0.08333569 0.014424537
000300 5f 09 75 3d 91 15 12 be 0b 55 0a 3d d1 1a 8f 3d
       0.05982339 -0.1426604 0.03377251 0.06987537
000310 ae bc a9 bc e3 79 60 3e c0 5c eb 3a bb 66 94 3d
       -0.020719852 0.21921496 0.0017956719 0.07246157
000320 67 cd 1b 3d 90 bc bd bd ca 8a 36 be f0 7a 86 bd
       0.038037684 -0.09264481 -0.17826381 -0.06566417
000330 75 0a 1b be d6 99 0d be 8d 10 11 3a 85 b1 07 be
       -0.15140708 -0.13828215 0.00055337773 -0.13251312
000340 12 04 04 bc 9d b1 19 3c 26 39 1b be 07 d8 1f bd
       -0.008057611 0.009380725 -0.15158519 -0.03902438
000350 54 0c 05 be 2d 99 33 bc 82 44 6b 3e fe 38 0a be
       -0.12992984 -0.010961813 0.22975352 -0.13498303
000360 fe 1e 0a 3e ab fe 5f be 41 cd 56 bd 29 48 45 be
       0.13488385 -0.21874492 -0.05244184 -0.19265808
000370 ab 05 26 3d db 60 bf bd 55 18 d5 3d d7 03 0c be
       0.04053275 -0.093446456 0.104050316 -0.1367334
000380 89 0d 91 3d 04 40 c4 bd fa 50 71 be ad 08 43 be
       0.0708266 -0.095825225 -0.23566046 -0.19046278
000390 aa 89 a2 3d 4c 7e d8 bd 8f ed fa bd 0b a7 24 bd
       0.079364136 -0.10570964 -0.12252342 -0.040198367
0003a0 83 2f c6 3d 90 fb ff bb 5c 0c 9e bd b5 55 a9 be
       0.09677031 -0.007811971 -0.07717201 -0.33073202
0003b0 f6 19 23 be cf 26 2d be 63 c3 18 bd 02 6f fe 3d
       -0.15927872 -0.16909336 -0.03729571 0.12423517
0003c0 95 13 f7 bd 29 93 a9 bc 9a aa 24 3e c0 af 36 3e
       -0.12064282 -0.020700054 0.16080704 0.17840481
0003d0 4d 8d ae 3d 79 b5 2f 3d 92 6f 6c 3b dd f1 c0 3d
       0.08523045 0.042897675 0.0036077243 0.09421132
0003e0 ee a3 bb bd df ea 51 3e f1 4b 8b 3e c8 b0 04 be
       -0.091621265 0.20499752 0.27206376 -0.12958062
0003f0 66 88 dc bd 04 12 3d bd e3 6f 17 3e 6f 5d e0 3d
       -0.107682034 -0.04615976 0.14788775 0.10955321

map_layer2.bias f4 [12]
000000 d9 84 6d 3c 66 96 1d bc 1b 75 5f bb 91 3e 4a bc
       0.014497005 -0.009618377 -0.00340969 -0.012344019
000010 6a 4d 4d bc a4 61 ac b9 48 5a a5 bc b0 a4 d0 bc
       -0.012530664 -0.00032879144 -0.020184651 -0.025469154
000020 54 a6 fa bc ca 42 7a 3d 4d d8 34 3c 3a 06 56 3c
       -0.03059689 0.06109885 0.011037898 0.013063008

ex_layer.weight f4 [48, 12, 1, 1]
000000 f0 c0 28 bd 62 3d de 3e 13 52 0c bf 81 4f bf be
       -0.041199625 0.43406206 -0.54812735 -0.37365344
000010 51 3f c0 be 6c c1 60 3e a0 26 d4 bd 46 57 d3 3e
       -0.37548307 0.21948785 -0.1035893 0.41277522
000020 21 d1 e6 3e ad 7d fe 3e 85 96 d5 3c 1f 5b ea bd
       0.45081428 0.49705258 0.02607275 -0.11443161
000030 4e 20 4a be 5b ba e1 3e 53 2f 7a be f3 93 1e bf
       -0.19738886 0.4408749 -0.24432115 -0.619445
000040 f4 6e a4 3e 70 1e 6a be 5a c9 11 3f 63 41 7b 3d
       0.321159 -0.22863173 0.56947863 0.061341655
000050 a9 ea 4d be 7a 04 26 3d cd c9 14 bf bc 56 47 3e
       -0.20109047 0.040531613 -0.58120424 0.1946668
000060 1a c9 7a be 33 9a 2f bf 75 20 06 bf 27 9b c6 be
       -0.24490777 -0.68594664 -0.52393275 -0.38790247
000070 0e d7 eb be 12 43 04 3f 57 ef 30 bf 82 7d 22 bf
       -0.4606251 0.5166484 -0.69115204 -0.6347276
000080 86 75 af 3e ed 92 18 3d b9 82 22 3f 2b a8 23 bf
       0.3426935 0.037249494 0.63480717 -0.6392848
000090 3b a9 12 bf 65 a2 1e be cc f5 fa be e5 03 20 3f
       -0.57289475 -0.15491636 -0.49015653 0.6250594
0000a0 c9 bc b2 be 0b 21 e2 be 25 9e 0a bf da 84 a6 be
       -0.34909657 -0.44165835 -0.5414756 -0.32523233
0000b0 b1 0d e3 be bf 43 4e 3e 78 50 23 3e e1 df ba 3d
       -0.44346383 0.2014303 0.15948665 0.09124733
0000c0 40 e4 84 3d e2 e8 29 bf 5a e7 32 3f 05 a8 17 bd
       0.06488848 -0.66370976 0.69884264 -0.03702547
0000d0 83 b1 d1 be 28 ef 9d 3e 0b e9 f4 bc a2 c2 bf be
       -0.40955743 0.30846524 -0.02989628 -0.3745318
0000e0 79 9f 7b bd 50 4b 39 bf b3 ee 10 3f 65 09 bd be
       -0.06143138 -0.7238054 0.56614226 -0.3692123
0000f0 97 6e 14 3e 1f 4f 8c bd 69 84 cf be f5 6e a7 be
       0.14495312 -0.06851029 -0.40530708 -0.3270184
000100 fc 48 d8 3d 50 0f 6b 3e a1 f8 23 bf 4c 9a 32 be
       0.10560796 0.2295506 -0.6405125 -0.17441672
000110 df d0 ac 3d f9 9a 2b be 72 fc 07 3f 43 fe c6 be
       0.084382765 -0.16758336 0.53119576 -0.3886586
000120 03 fc 0d be 02 9e f3 3e 4b c3 27 3f a3 b6 08 3f
       -0.13865666 0.47581488 0.6553237 0.5340368
000130 18 27 19 bf 34 7c e4 3e da 35 55 3e 8e 32 e0 be
       -0.5982528 0.4462601 0.20821324 -0.4378857
000140 c9 49 49 be 67 e2 4a 3e a5 1a 5e 3c cb 95 a5 bd
       -0.19657053 0.19812928 0.013556157 -0.08085211
000150 55 d9 2c 3f 5b 0b 29 bf d4 e1 0d 3f d4 e9 39 be
       0.6751912 -0.6603295 0.5542271 -0.18155605
000160 72 31 41 be f9 54 67 be de 9b 0b bf 10 12 09 3f
       -0.18866518 -0.22591008 -0.5453471 0.53543186
000170 de 50 96 be c2 f7 42 be e6 05 29 3f 68 b1 71 be
       -0.29358572 -0.19039825 0.66024625 -0.23602831
000180 ce 59 21 bf b8 65 1f bf 7d 16 f1 3e b3 1a 03 be
       -0.63027656 -0.62264585 0.4708747 -0.12803154
000190 c1 af d1 ba 1c de f9 3d 6f 8f 9a be 59 7f 21 bf
       -0.0015997813 0.12200567 -0.30187556 -0.6308494
0001a0 cc f0 30 bf 12 70 9d be ed 81 0c 3f 6c 5b 33 3e
       -0.69117427 -0.30749565 0.5488575 0.17515343
0001b0 80 56 06 3e 15 08 02 3f 0c 08 23 be 8c 1e 28 3e
       0.13118935 0.5079358 -0.15921038 0.16417903
0001c0 73 28 28 3f 9b 05 4f 3e d4 61 c7 be bd 79 2b bf
       0.6568672 0.20216982 -0.38941824 -0.6698263
0001d0 2e 08 47 3c 41 56 26 bf a1 16 67 3c e1 38 28 bf
       0.012147946 -0.64975363 0.014104516 -0.6571179
0001e0 0b 7b a0 3e 4e 75 1c bf eb ec 0b 3f da 6f d5 3e
       0.31343874 -0.6111649 0.54658383 0.41686898
0001f0 a8 d3 da 3e 0b 10 ae 3e f5 16 0d bf 3c 93 f6 3e
       0.42739606 0.33996615 -0.55113155 0.48159206
000200 f4 65 0e bf 8d eb f3 be c9 95 b5 3e 58 b7 1d 3d
       -0.5562432 -0.47640648 0.3546584 0.03850493
000210 f4 09 1a be a0 a4 c7 bd 0f fa e4 3e ac aa c1 3e
       -0.1504286 -0.097481966 0.4472203 0.37825525
000220 bd c9 d5 3d f0 1c 6d bd dd 23 11 3f 1d 68 d8 3d
       0.10438869 -0.057888925 0.5669535 0.10566733
000230 d4 b8 8e bd ff 86 22 3f 4e e1 1e 3d 25 48 1d 3f
       -0.06968847 0.6348724 0.038789086 0.6143821
000240 a3 77 99 3e f8 e0 10 bf c5 55 1e 3f d0 ee 06 3f
       0.29974088 -0.56593275 0.61849624 0.5270815
000250 4a 50 e9 3d 8c ef 55 be 5f ce f1 be e5 91 b2 bc
       0.11392267 -0.20892161 -0.4722776 -0.021798084
000260 22 d4 87 3e e3 fe 08 3f e3 19 2c bf 72 ce 20 bf
       0.26529032 0.53513926 -0.67227 -0.6281501
000270 c6 bb b5 3e b9 41 25 bf 36 b9 d5 be 5b 84 30 bf
       0.35494822 -0.6455341 -0.41742867 -0.6895196
000280 6b 58 91 be 67 ec d4 be eb 2a 6f 3e 44 f6 9f be
       -0.2838777 -0.4158661 0.23356216 -0.31242573
000290 45 5d 00 bf bb 3d 19 3f ba 01 9b 3e 78 c5 26 3e
       -0.5014232 0.5985982 0.30274755 0.16286266
0002a0 fc 08 ba 3e bb 9d 01 bf 88 1e f0 3d 2b ea f5 3e
       0.3633498 -0.506313 0.117245734 0.48030218
0002b0 31 24 36 bd eb 83 de 3d c6 17 9d be 01 94 23 3f
       -0.04446811 0.10865005 -0.306822 0.6389771
0002c0 eb 60 23 bf 72 8b 6a bd 5f 9c 74 3e 2f 5c c7 be
       -0.6381976 -0.05726189 0.23887776 -0.38937518
0002d0 f0 54 2d be 21 8e 00 bf 1d b6 42 3e 15 4b 31 3f
       -0.16926932 -0.5021687 0.19014783 0.6925519
0002e0 08 af f0 be 5a 7d 34 3f 29 f2 cd be 2f 88 76 3d
       -0.47008538 0.7050377 -0.40223816 0.06018847
0002f0 2c ad cb be d8 92 92 3e 80 2d 22 3e f0 c8 b1 3e
       -0.39780557 0.28627658 0.1583767 0.34723616
000300 2e d5 f6 3e d9 c0 3f be 60 c5 02 3e d8 94 1f 3f
       0.48209518 -0.1872591 0.12770605 0.6233649
000310 13 0d 07 3f bc 99 2b 3f 7c e1 27 3f 1c 88 2c be
       0.52754325 0.67031455 0.65578437 -0.16848797
000320 20 2c 2c 3e 98 c9 24 3f 49 22 ed be c8 56 28 bf
       0.16813707 0.6437011 -0.4631522 -0.6575742
000330 33 3e 6f bd a9 58 8b be ca b6 07 3f 46 e4 0b 3f
       -0.058408927 -0.2721608 0.5301329 0.5464519
000340 aa 83 b4 3e d7 14 b9 3c bd 04 0f 3f 46 80 c1 be
       0.35256702 0.022592945 0.55866605 -0.37793177
000350 8a c8 b6 3e 87 94 19 3f 4d bc 13 bf 8a ff e5 be
       0.35699874 0.5999226 -0.577092 -0.44921523
000360 b2 c9 19 bf 1d cf e2 3e 8b 74 80 3d bb 24 d4 3d
       -0.6007339 0.4429864 0.06272229 0.10358568
000370 7f 2a be be bf d0 18 bf 7e 80 19 bf 24 77 00 3f
       -0.37141797 -0.5969352 -0.5996169 0.50181794
000380 58 df bb 3e d0 9d ac be 19 de 21 bf 6d c8 8b 3e
       0.36693835 -0.3371415 -0.6322952 0.2730135
000390 5f fe 0b be 6a 4f 09 3d 13 8a 97 bd fc ba 0e be
       -0.13671254 0.033523 -0.073993824 -0.13938516
0003a0 bd cb 28 bf 70 8a 16 3f 30 d3 2e bf 2c b6 a1 be
       -0.6593588 0.5880499 -0.68290997 -0.315843
0003b0 43 c5 11 bf 5f 99 2f bf b1 7a ee 3c 9c d1 38 be
       -0.5694162 -0.685934 0.029111238 -0.1804871
0003c0 63 75 e1 be b0 8e d0 be d8 54 31 3f 88 32 22 bf
       -0.4403487 -0.40733862 0.69270086 -0.63358355
0003d0 0a 78 2c bf c9 d3 7b be a9 a3 1a bf fb 59 59 3e
       -0.67370665 -0.24592508 -0.60405976 0.21225731
0003e0 65 3e 36 3f ba 7a 20 bf 4d ed de be f5 83 65 3d
       0.71188956 -0.62687266 -0.4354042 0.056034047
0003f0 c2 45 dd be 7d a6 0f 3f 3e 72 14 3d 7c 8b 22 3f
       -0.43217283 0.56113416 0.036241762 0.63494086

ex_layer.bias f4 [48]
000000 0b 16 31 bd 0b 20 db bb d5 c5 4d bd 2b 0a 91 bc
       -0.043233912 -0.0066871694 -0.050237495 -0.017705044
000010 d1 39 be 3a 84 c5 c4 bc 69 b7 a4 b9 9e 13 bd 3a
       0.001451308 -0.024019964 -0.0003141717 0.0014425402
000020 c9 ac 83 3c 46 42 bd 3c 3f 9b 93 bd 1d ac 9a bb
       0.016073601 0.02310289 -0.07207345 -0.0047202245
000030 2f 11 93 3c 18 65 0e 3d 75 22 33 3d 3e db 00 bd
       0.01795253 0.03476438 0.043734033 -0.031459086
000040 59 47 a9 bc 59 54 86 bb 3c 2f 80 bd 28 7a fc 3a
       -0.020663904 -0.0040994105 -0.06259009 0.001926248
000050 22 72 2f bd cc 27 38 3c 67 b5 8d bc a3 08 8d 3c
       -0.042833455 0.011239957 -0.017298413 0.017216032
000060 92 1d a6 3b dc 3b 43 bc 4c d8 5f bb 09 d9 7d bc
       0.005069443 -0.011916127 -0.0034156023 -0.01549364
000070 8d f8 49 3c 32 d4 95 3b b7 46 86 bc 77 e3 ad 3a
       0.0123273255 0.004572415 -0.016391141 0.0013266642
000080 45 7e f6 ba 0e 81 2c bd a4 89 13 bc 1b 42 d9 bb
       -0.0018805942 -0.042115264 -0.009004984 -0.006630195
000090 3d 0a 71 bb 18 46 ca 3c 41 44 8f bc 7e de 06 3a
       -0.0036779784 0.024691626 -0.0174886 0.0005144848
0000a0 28 fb ed 3c 3f 2a 1b 3d da 2f 33 3c 6f 67 31 bc
       0.029050425 0.037882086 0.010936702 -0.010827883
0000b0 89 c4 82 39 13 13 f5 3b 49 c9 94 bb 98 ee cc bc
       0.00024941962 0.0074790805 -0.0045405966 -0.025016114

deconv.weight f4 [48, 1, 3, 3]
000000 3b fb 83 3e d4 03 9b be f3 04 46 be fb aa ea bd
       0.2577761 -0.30276358 -0.19337825 -0.11458393
000010 ac 60 a4 3e ab 7b 65 be 00 a8 23 bb 96 f1 c2 bc
       0.32105005 -0.22410457 -0.0024971962 -0.023796838
000020 37 48 9a 3e d6 1f 60 3d ab 60 ca bc 5b 37 23 be
       0.3013322 0.05471786 -0.024704298 -0.15939085
000030 b6 48 2d 3e f0 e6 6a 3e 78 01 87 3e a0 e7 04 3e
       0.16922268 0.22939658 0.26368308 0.12978983
000040 ca 24 a2 be dc 35 90 be 23 64 30 be 02 82 9e be
       -0.31668693 -0.2816609 -0.17225699 -0.30958563
000050 d6 5d 31 3d 58 d8 74 3e 76 4d ab 3d cb 3e 5b be
       0.04330238 0.23910654 0.08364384 -0.21410672
000060 08 bc 9d be 50 68 94 bd e0 b1 63 3e 60 1e f1 3d
       -0.3080752 -0.072464585 0.22235823 0.11773372
000070 00 e9 1e bc 76 93 e5 3d eb aa a2 3e 4f 4d 8c be
       -0.009699106 0.112097666 0.31771025 -0.27402732
000080 48 80 87 be c8 b7 42 3e d0 13 c0 3d de f9 6e 3e
       -0.26465058 0.1901542 0.09378779 0.23337504
000090 00 00 b0 b7 16 4e a4 3c 94 57 a4 be 36 8d 44 be
       -2.0980835e-05 0.020056766 -0.32098067 -0.19194493
0000a0 40 1d 33 bd 38 bf 95 3e 03 29 64 3e a6 bc 46 3e
       -0.043729067 0.2924745 0.2228127 0.19407901
0000b0 ef 39 90 be e8 01 13 3e f4 63 a6 3e eb b1 34 be
       -0.281692 0.14356196 0.32498133 -0.17645995
0000c0 0b 70 a5 bd d0 39 b1 3d a2 3b 86 be d6 81 4c 3c
       -0.08078011 0.08653605 -0.2621737 0.012482127
0000d0 3e b9 16 be 4b 43 1d 3e 00 d3 20 bd 46 18 30 3e
       -0.14719102 0.15357701 -0.039263725 0.1719676
0000e0 c3 9a 82 be a0 fc 03 3d a4 ea 8d be 56 ca 82 3d
       -0.255087 0.032223344 -0.2771808 0.06386249
0000f0 a6 1b 8f 3d 3b f8 a7 bd cb 0a c5 3d 2e 8d 24 be
       0.069876954 -0.08201643 0.09621199 -0.16069481
000100 16 e6 49 3d d6 8a aa be 56 4b ea 3d 68 85 7b be
       0.049291693 -0.33309048 0.114401504 -0.24562609
000110 fe 04 a5 be 5e 09 3e be db 28 e9 bd 48 a2 8e 3e
       -0.3223037 -0.18558261 -0.11384746 0.27858186
000120 5b 63 26 3e 1b ef 8d 3d eb 51 48 3e be bd 1e be
       0.16248839 0.069303714 0.19562499 -0.15502068
000130 06 32 78 3e 3e cb 19 3e cf b9 87 3e 4f 9d 96 be
       0.24237832 0.15018937 0.26508948 -0.29416892
000140 06 db db bd eb 3b 6e bd 3e 82 9c 3e bf 1a a3 be
       -0.10735135 -0.05816261 0.30568117 -0.31856343
000150 5c c9 8a 3e 06 c9 64 be 22 b8 9e 3e 4b 74 fe 3d
       0.2710675 -0.2234231 0.30999857 0.12424525
000160 96 0a 50 bd 00 0b e1 3d cb 2c 61 bd 50 17 a0 bd
       -0.050791346 0.10988426 -0.05497436 -0.078169465
000170 e8 cf 6b 3e a8 9f 19 3e be 6b 07 be 76 a4 90 3e
       0.23028529 0.1500231 -0.13224694 0.28250474
000180 9f 45 a6 3e b4 f8 8f be 93 1d 89 3e 5f d6 96 be
       0.32474992 -0.28119433 0.26780376 -0.29460427
000190 23 f9 91 be 2b 03 aa bd a6 3b d5 bd 18 af 70 3e
       -0.2851039 -0.083013855 -0.10411768 0.23504293
0001a0 7e 1f 71 be f8 30 33 3e 00 7e a7 3c b8 fe 13 3e
       -0.2354717 0.17499149 0.020445824 0.14452636
0001b0 e8 6f 12 be 0b f2 71 3d ab 61 81 3b 2b 8a 47 bc
       -0.14300501 0.05906872 0.0039484105 -0.012178938
0001c0 30 99 3c 3e e3 3c 0d 3e 80 2b 6f 3e 50 8f 23 be
       0.18417811 0.13792758 0.23356438 -0.15972638
0001d0 56 94 dc 3b 18 c2 32 3e c6 b2 22 be 2b a4 f9 bc
       0.00673155 0.17456853 -0.15888509 -0.03047379
0001e0 20 72 55 3d d0 d2 a8 bd 8e da 0c 3e 13 af 42 3e
       0.05211079 -0.08243334 0.13755247 0.19012098
0001f0 af 65 9b be 0e 55 95 be 80 39 f5 bd 0e c0 67 3e
       -0.30351016 -0.29166454 -0.11973858 0.22631857
000200 20 4b e0 3d a0 54 89 be ca 4c a3 be 08 d3 3a 3e
       0.10951829 -0.26822376 -0.31894523 0.18244565
000210 d6 c1 2f 3d 46 73 c8 3d 9b d1 83 3d 9e cb 5c be
       0.042909466 0.09787612 0.064364634 -0.21562049
000220 08 e3 71 3e 36 53 1f bd cb 57 fe 3d a3 d4 65 be
       0.23621762 -0.038897716 0.12419089 -0.22444396
000230 3e 31 94 be b8 1b 9b be 22 ca 9c 3e 20 54 bf 3d
       -0.2894382 -0.30294585 0.30622965 0.093422174
000240 8a d9 94 3e f6 a0 ae 3d a0 0f 58 bd 83 ba 00 3e
       0.2907222 0.085267946 -0.052749276 0.12571149
000250 04 6c a8 3e 12 1e 8a 3e 38 37 9c 3e a6 a6 aa 3e
       0.3289491 0.26976067 0.3051088 0.33330268
000260 00 ef 4a 3d 00 94 5a 3c 3e 1f 9f 3e d0 a9 28 3e
       0.049544334 0.01334095 0.31078523 0.16471028
000270 7a dc 8a 3e d6 98 71 bd fc 5c 9b be b3 72 51 3e
       0.27121335 -0.058983646 -0.3034438 0.2045391
000280 16 f7 30 3d cb 3b 9a bd c0 73 9f 3e 96 5f a0 3d
       0.04320439 -0.07530936 0.31142998 0.078307316
000290 2b 44 36 3e 2b 5f fd 3c 98 5a 93 3e 96 22 b8 3c
       0.17799442 0.030929169 0.28780055 0.02247743
0002a0 db f2 f9 bd 86 81 70 3e 90 bf 5b be 07 e5 a5 be
       -0.12204524 0.2348691 -0.21459794 -0.32401296
0002b0 d6 ca a9 bc 64 37 83 be a3 fa 55 be 93 62 85 3e
       -0.020726603 -0.25628197 -0.20896392 0.2605177
0002c0 a0 d7 19 3e 40 d0 2b bd e6 20 9b bd 58 71 44 3e
       0.1502366 -0.04194665 -0.07574634 0.19183862
0002d0 58 29 7c be d8 32 23 be 80 25 77 3d 18 d2 19 be
       -0.24625146 -0.15937364 0.060338497 -0.1502155
0002e0 46 32 97 be 43 c3 58 3e fa 7d a7 be 16 10 b6 bd
       -0.29530543 0.21168236 -0.327133 -0.08889787
0002f0 1b 4d a5 3e a6 07 5c be 00 81 0d 3d 5f ec 92 3e
       0.3228539 -0.21487293 0.034546852 0.28695962
000300 6b bb 4a bd 2b 70 0a 3c f0 2b 14 be 9b 7d 9f be
       -0.049495142 0.0084495945 -0.14469886 -0.31150517
000310 e0 f5 9f bd 82 13 9d be 66 c6 89 3e 7e 6e 50 be
       -0.07810569 -0.30678946 0.26909178 -0.2035465
000320 a7 85 87 3e 00 bc ec bb e3 29 7e 3e ae 95 a1 be
       0.26469156 -0.00722456 0.24820666 -0.3155951
000330 40 a8 66 be 10 a4 80 3e d6 5f 86 3e 23 ce 03 be
       -0.2252512 0.2512517 0.26244992 -0.12871604
000340 9e 2b 72 3e 76 7b a5 3e e8 e6 91 3e 7e 4b 46 be
       0.23649451 0.32320756 0.2849648 -0.19364735
000350 83 24 29 3e 20 0f 53 3e 16 b6 9a bd 80 e7 45 bd
       0.16517834 0.20611238 -0.075542614 -0.04831648
000360 23 42 7b 3e 2e 19 77 3e be e4 6b be bb 4e 1e be
       0.24536948 0.24130699 -0.23036477 -0.15459721
000370 84 db a8 3e 68 dc 04 be eb 9c a0 bc 2b 2e 6c bc
       0.32979977 -0.12974703 -0.019606074 -0.014415304
000380 90 1b 1c 3e f3 2a 32 be 38 10 4a 3e 13 f8 46 3e
       0.1524489 -0.17399196 0.1973275 0.1943057
000390 76 5f 7f 3e 8e fb 98 be db 58 d8 bd 0c bb 89 3e
       0.24938759 -0.2987942 -0.10563823 0.26900518
0003a0 db 02 1a be 9b e0 17 3e 76 5d 8f bd c6 6a 4e be
       -0.15040152 0.14831774 -0.07000248 -0.20157918
0003b0 cb f7 0e bd 96 b4 fb 3d c0 60 a4 3c 73 28 6e 3e
       -0.034904283 0.122903034 0.020065665 0.23257618
0003c0 a0 87 7d bd 00 ba 7f be 42 70 9a be eb b2 1c 3d
       -0.06189692 -0.24973297 -0.3016377 0.038256567
0003d0 b3 d4 09 3e eb f2 89 3c de 3e a1 be 14 0d 88 be
       0.13460045 0.016839465 -0.31493276 -0.26572478
0003e0 00 0e 0d bb eb 2b 69 bd 0c 38 a6 be fe f2 1b be
       -0.0021523237 -0.05692665 -0.32464635 -0.15229413
0003f0 ec d5 8f be 80 14 32 bd ab 96 73 3e ee 6a 94 be
       -0.28092897 -0.04347658 0.23787944 -0.2898783
