model_f3.pth (torch, 31030 bytes, 13 tensors)

fe_layer.weight f4 [48, 1, 3, 3]
00000000: 7da6 8e3e 61f4 9ebe 23f9 46be 7c64 38bf
00000010: 7a4a e6be 54a6 c1be 3b7d ebbe af9b 23bf
00000020: 6e54 05bf 51de 043f ff61 da3e 4897 f93d
00000030: 7121 2f3f 45ce b4bc 8af8 363f 445d 133d
00000040: 8fa0 963e 05b7 013f 7dc7 f53e 7dd6 2e3f
00000050: e0e5 393f f375 01bf 46da e53e 03a9 30bf
00000060: 4509 263f 6935 f6be 9c84 433f e32c 8b3e
00000070: 08e4 b1be c83c 2b3f 746f dfbe 2ae8 b1be
00000080: efd7 623e 745a 21bf 85c6 953e 1e01 3abf
00000090: 7df9 83bd 9765 16be 739c 3c3f abac c6bd
000000a0: 4747 51be d913 293f 34bd c13c bb60 1fbf
000000b0: 9a43 093e 474f 23bf 5d64 143f a0f7 c8bd
000000c0: 40a5 cbbe 0cc0 183f ceb4 143f 450e 1fbe
000000d0: a772 9bbe bec4 473f c46a 2bbf 5983 43be
000000e0: fc09 c7be 7b99 3a3c 7072 383f 8536 243f
000000f0: a573 f93e b956 b83e 3487 e23e 1198 3dbe
00000100: 8bc9 123f e007 fbbe 5194 6d3e 43c3 11bf
00000110: 47a8 11bf b6a7 e6be 511a d63e ecd0 87bd
00000120: 2b36 a23e 0dd3 343f 9d85 d33e 1a8f dd3e
00000130: 7049 473e 6f94 9c3d 45fc 6dbd d006 ac3e
00000140: 0694 f73e 6681 083f ac9f afbe a6c6 ddbe
00000150: e374 1bbf 6eed 1d3e 75c9 36be 8785 ee3e
00000160: 6126 f33e 7d0b ba3e 704d 05bf e89e 3abf
00000170: e8a1 2e3f ec19 9fbd 60ad c63e 30dd 293f
00000180: 4fab 2f3f 7740 253f 8e41 67be 1ac8 1bbf
00000190: b17b 13bf 36ee 50be 1b73 06be 5be0 0e3f
000001a0: 857b 4bbf de93 5a3d ec3c 513d 7be7 103f
000001b0: 2a66 673e 1dc1 bfbe 9676 093e 907e 0b3f
000001c0: b0e6 0fbe 9043 cd3d 4b4e 1fbd bfea 06be
000001d0: beae 4cbf c504 c6be 727f 57bf 3eb4 d43e
000001e0: 2ef3 97bd dc39 abbd 9035 4cbf f3f3 35bf
000001f0: c365 a23b 4e86 123f 220d c2bd ded3 3a3f
00000200: e465 f13e e92f 56be e6e8 cabe dd1f a4be
00000210: 6b1a 22bf 5a44 9a3e 92b0 4fbf 0a12 1c3f
00000220: 7f06 ff3e e92f 9f3e b820 17bf 21f8 333c
00000230: a14b 8e3d fad8 303e e8ff ac3d 9dcc 04be
00000240: 002c 8d3e 8bc4 97be 2509 cd3b 0afc fa3e
00000250: 44be 15bf 2dff 103e 64d9 cf3d 6e55 33bd
00000260: 5da4 b13e 5226 7d3d 2ee7 423f e242 d93d
00000270: 7067 8abe 0e11 9e3c c326 023e cdba 3ebe
00000280: 601b 04bf 9d66 82bd c016 653e a180 693e
00000290: 0f07 19bf fc7b f73e 917b 453f 214e 9ebe
000002a0: cb8f 843e 7ab6 3d3f 0a63 673e 0f57 023f
000002b0: 3c42 d63e 0876 15be fe67 dfbe a88e 2ebf
000002c0: d041 f8bd 649b 12bf 993f 803e 368f debd
000002d0: ee32 f2bd 856f bfbe 3665 da3e 165b c8be
000002e0: ea88 a3be cd48 473e fd73 2abf 16f9 99bd
000002f0: e3a9 57bb e478 e73d e452 2c3f 3088 8fbe
00000300: 3b70 433d 1f40 3bbe 744e 20bf 4c6e 883e
00000310: 76e5 e93e 2d04 20be 1d90 373f 1604 243f
00000320: 4302 1cbf 8943 7f3d 4225 483f 5bc2 373f
00000330: 1e9d bd3e 826b e63e 6a20 ccbc 9a0b 91bd
00000340: e912 c4be 862c d63d 8650 c03e 0521 41bf
00000350: e396 1cbf 27a7 0fbf fff4 583e 62bb d2bd
00000360: fcf2 113e 4d92 913e 3789 f1be 1a95 afbe
00000370: 49b0 a7be cf4e 37bf b2c6 81be a745 c83e
00000380: 6048 31bf 2ef5 443f 1abb 303f 21c5 d6be
00000390: 0f37 0d3d 5d35 cdbe a943 1ebf 77cd 263f
000003a0: 543f e6be 0198 da3e 37a3 ebbe c138 4dbf
000003b0: c4ab 163f a9f0 0a3f 45e9 d93d ca4a 823e
000003c0: 9d9d 82bd 80f7 37bf c2bc 08bf a365 303d
000003d0: c8b4 173f d10f 5fbe 6439 b63e c262 9b3d
000003e0: 0844 80be 47b0 2abf 4016 df3e 6fdf f83e
000003f0: b468 393f 503a 063f 9466 71be 7001 3a3f
0.27861395 -0.3104582 -0.19430976 -0.72028327 -0.44978696 -0.3782221 -0.4599398 -0.6390943
-0.52081954 0.5190173 0.4265289 0.12187058 0.684104 -0.022071013 0.7147299 0.035977617
0.2941937 0.5066989 0.4800376 0.68296033 0.72616386 -0.505706 0.44893092 -0.6900789
0.64857894 -0.48087624 0.7637422 0.27182683 -0.34744287 0.6688962 -0.4363972 -0.3474744
0.22152685 -0.63028646 0.2925302 -0.72657955 -0.064440705 -0.14687191 0.7367622 -0.097009026
-0.20437346 0.6604591 0.02364979 -0.62256974 0.13404694 -0.6379284 0.5796564 -0.09812856
-0.39774513 0.5966804 0.58088386 -0.15532787 -0.3036091 0.7803458 -0.66959786 -0.19093074
-0.38874805 0.011389132 0.7204962 0.6414569 0.48721042 0.36003664 0.44243777 -0.1851504
0.5733878 -0.49029446 0.2320111 -0.5693857 -0.56897396 -0.45049828 0.41816953 -0.066316456
0.31681952 0.7063454 0.41312876 0.4327324 0.19461608 0.07645499 -0.05810191 0.33598948
0.4835512 0.53322446 -0.34301507 -0.4331562 -0.6072523 0.15422603 -0.17850287 0.46586248
0.47490218 0.3633689 -0.52071285 -0.7289872 0.682158 -0.07768616 0.3880415 0.6635313
0.6862077 0.6455149 -0.22583601 -0.60852206 -0.57610613 -0.2040337 -0.13129847 0.5581109
-0.7948535 0.053363673 0.05108349 0.5660321 0.22597566 -0.3745202 0.13424143 0.54489994
-0.14052844 0.10022652 -0.038893025 -0.13175486 -0.79954135 -0.38675514 -0.8417884 0.41543764
-0.0741943 -0.08360645 -0.7976923 -0.7107536 0.0049559786 0.5723618 -0.09475161 0.72979534
0.4714805 -0.20916714 -0.39630812 -0.3205556 -0.6332156 0.30130273 -0.811288 0.60965025
0.49809644 0.3109124 -0.590343 0.0109844515 0.06948019 0.1727027 0.08447248 -0.12968679
0.27572632 -0.29642138 0.0062571936 0.49020416 -0.5849345 0.14159842 0.10148886 -0.043782644
0.34695712 0.061804123 0.76134 0.1060846 -0.27032042 0.019295242 0.12710099 -0.18625946
-0.5160427 -0.06367228 0.2237196 0.22802974 -0.59776396 0.4833678 0.7714167 -0.30918983
0.25890955 0.7410656 0.22596374 0.5091409 0.41847408 -0.14595807 -0.43634027 -0.68186426
-0.12121928 -0.5726836 0.2504852 -0.10867159 -0.1182612 -0.3738977 0.42655343 -0.39131993
-0.31940395 0.19461365 -0.66583234 -0.075182125 -0.0032907657 0.11302355 0.6731398 -0.2803359
0.047714453 -0.18286179 -0.6261971 0.2664665 0.45682877 -0.15626593 0.71704274 0.64068735
-0.6094095 0.062320266 0.7818185 0.7178094 0.37033933 0.45003897 -0.0249178 -0.07082291
-0.38295677 0.10457711 0.37561435 -0.7544101 -0.61167735 -0.5611443 0.21187209 -0.10289647
0.14252847 0.2843193 -0.47175 -0.34293443 -0.32751682 -0.7160463 -0.25346905 0.3911564
-0.6925106 0.76936615 0.69035494 -0.41947272 0.034476336 -0.40079775 -0.6182199 0.65157264
-0.4497019 0.42694095 -0.4602296 -0.80164725 0.58855844 0.5427347 0.10640196 0.25447685
-0.063777186 -0.7186203 -0.5341302 0.04306568 0.59260225 -0.21783377 0.3559066 0.07587196
-0.25051904 -0.6667523 0.43571663 0.48607966 0.7242539 0.5243273 -0.23574287 0.72658443

fe_layer.bias f4 [48]
00000000: f677 f3bb 2456 5dbc d5fb a13b 2c62 65bb
00000010: b12e 903c 33e3 81bc 2613 083b 40c4 bbbc
00000020: 612e e0bb bdcf 723b 6e91 4dbb c6b9 f03b
00000030: adca f6bb b23c 82bc e6b0 1abc 5636 d73a
00000040: 7a63 fd3c 0b00 9d3d 54f4 963c 8902 5ebc
00000050: 5ce7 93bb d464 d1bb 8850 f73a 1b2d 43bc
00000060: a602 a6bc b159 413c ae18 91bd ed27 1fbb
00000070: 8d2b 0fbb e536 03bd 9deb 43bc 0c5b 813b
00000080: 7361 523c 093f 0f3b 0783 903b bd1e e6ba
00000090: ee22 c1bb eda2 64bc 3f14 a4bc 7372 6f3a
000000a0: 9ff3 b3ba f88e 9d3b f24b ba3b c9b7 9e3b
000000b0: 440e 39bc c2ad 41bc 5cd5 d5ba c621 a03b
-0.007430072 -0.013509307 0.004943351 -0.0035001142 0.01760039 -0.015855407 0.0020763366 -0.022920728
-0.0068414663 0.0037050091 -0.00313672 0.0073463647 -0.007531485 -0.015898082 -0.00944159 0.0016419392
0.030931223 0.07666024 0.018427052 -0.013550409 -0.004513664 -0.0063901935 0.0018868605 -0.011912609
-0.020264935 0.011801169 -0.070847854 -0.0024285272 -0.0021846027 -0.032034773 -0.01195803 0.003947621
0.0128406165 0.002185764 0.004410151 -0.0017556768 -0.0058940565 -0.01395486 -0.020029185 0.0009134181
-0.0013729221 0.004808303 0.005685323 0.0048436862 -0.011294905 -0.011821212 -0.0016314196 0.0048868386

sh_layer.weight f4 [12, 48, 1, 1]
00000000: 0a06 d63d ac2d 1d3e 6f45 babe 21ae 26be
00000010: b86d aa3e 8901 993d 4b45 a5be d637 113d
00000020: 7b20 90be 4ed3 9bbe d265 973e d7ec 98be
00000030: 6530 56bd 2a44 813d 3d37 9abd eca7 4d3e
00000040: e723 0bbe db79 b93d f580 a9bd 1f82 c7bc
00000050: d7ce 44be 58e6 c5be d47d 093e b6e6 97be
00000060: 1093 20bd 9855 8cbe 6677 133e a833 7e3e
00000070: 48a4 6abe cbb6 9c3e 3983 ac3e b0ec 8d3e
00000080: a6b8 b2be bbf4 473e d2d2 71be 1189 9a3e
00000090: 472b c23d dcf7 a6be 9737 95be 8130 9bbb
000000a0: 7eb6 9abe 418f dabc a4f9 18be 2d24 20bd
000000b0: d7cf 9ebe de68 4cbe 651a ddbd 8375 79be
000000c0: 9f77 a2be cd1d e33d 2590 203e deef 9fbe
000000d0: aff0 893e 7421 19be b338 5e3e 4b03 813d
000000e0: 19f6 b3be 2ac2 14be cf02 6a3d 1749 233d
000000f0: 1b51 903e 2a4b 153e 1b8c b13d 7ac7 033e
00000100: ff24 913e 08b8 983e 6553 0d3e fb25 023e
00000110: bcb9 13bd bb37 9bbc 892a d23d ee0b 90bc
00000120: aaed 353d 47d2 b1bd 98a8 01be 3d34 063e
00000130: 9596 983e a39d d4bc 7089 413e 9a5a b3bc
00000140: 35c0 c8bd 7980 55be 2c3b 14be ccf9 ee3d
00000150: a81f 103e f3f0 c2be 9752 343e 5003 ccbb
00000160: 37a7 89be d881 6f3e c3a7 20bd 8f03 853e
00000170: 4f84 9a3e 0a9d 9c3d 8d50 853e 124b 78bd
00000180: 9a83 81be c4af d43d c5bb 153e c660 823e
00000190: 65e8 71be b0ef da3c f49a 413e 7564 9f3e
000001a0: a81f 93be 4650 483e d4f3 abbe 2a67 ab3c
000001b0: af9e 83be f824 79be ed61 903e 5e47 cf3d
000001c0: 6236 8c3d 69c0 a43e affd 40bd cd7e 873e
000001d0: 7069 7ebd b33a 683e fab6 4b3e ba43 7c3e
000001e0: d622 bf3d 3524 6fbd bf7c 5abe 697b 643e
000001f0: 9fe4 543e 4df6 563e 31cb 51be 268a 8abe
00000200: 885f 79be e738 9abe b41d 67be 2134 a03e
00000210: bfca 963e eb1d 173e 12ae 473c 83fe 3c3e
00000220: cdf3 8c3c 3d42 7abe dd7c ac3e 8a2d 1bbe
00000230: 81d0 8d3e be32 3c3b b10b a5be 1811 1fbe
00000240: e8d4 9cbe bc4b 23be 3cd1 933e f1e9 20bd
00000250: 9d61 39bd 8386 40bd 705f 5dbe 8e8d e43d
00000260: 7415 f33c 2690 b13d 5a9d 723e 5cd5 223d
00000270: 9c5a c93d 0910 5cbd f21f 53be e07b c03c
00000280: 4a3f 2f3d 8cd9 85be b8a3 79be effa 51bb
00000290: 85db 333e 7b3a 4e3e c865 84be ba45 6e3d
000002a0: 85e5 17be cd7c 0fbe 91b8 f3bd db46 ac3d
000002b0: c483 843e 9d0d a73e 0fe0 a73e 53af 773e
000002c0: db02 ad3d 15a3 cb3c 4191 933e b795 55be
000002d0: 74a6 8d3e 84af a7be fa6f f13d bbbf 973e
000002e0: 1fe3 ad3d a8ee 34be e04b 91be fca2 833e
000002f0: c87c eebd 04a4 ae3e 4080 4f3e 5aaa 083e
00000300: 95f9 253e 0c21 37be 19b2 fcbc 7003 90be
00000310: dc6f 403e a3b3 e23d 7d6f 87be 8f9e b4be
00000320: 285e 903d 769d 8a3e 0ec8 a4be 475c 2bbe
00000330: d924 b03e f68b 51be 6e49 0d3e bce8 4cbc
00000340: a0d1 a1be 25de 923e b985 56be 4fd3 913e
00000350: c7c2 783e d52d e83c 7f05 5a3c 3dcf 8d3e
00000360: 0153 62be b9d6 733e 7d90 67be 0a15 aebe
00000370: 4fbb 21bc b685 3cbe 4ea2 4b3e c9d2 91be
00000380: 376d 1cbe 117c d43d ef6e de3d e38e 8c3e
00000390: ece7 0abe b820 4a3e 0c71 393e c794 95be
000003a0: aef8 58be e323 c6be adfa a73e cec9 c53e
000003b0: a44c f0bd 31a6 25be 0d6e 97bc 42af 0a3e
000003c0: 03c6 f5bd e7ee 57be adfe ce3d ea6e 713e
000003d0: a94c 8d3c cdc7 96bd 5d83 8e3e 0df5 5fbe
000003e0: 0db1 e6bc bc1b 113b 1d50 0fbe 31f8 1ebd
000003f0: 2fcc cc3d 5509 adbe 3afd 82be 7783 07be
0.104503706 0.15349454 -0.363811 -0.16277362 0.33286834 0.07470996 -0.3227943 0.03545364
-0.2814978 -0.3043465 0.2956987 -0.29868194 -0.052292246 0.063118294 -0.07530067 0.20083588
-0.13587914 0.09056445 -0.0827655 -0.024354039 -0.19219528 -0.386523 0.13426906 -0.29668206
-0.03920275 -0.27409053 0.14401016 0.24824393 -0.22914231 0.3060821 0.33693865 0.2771964
-0.349065 0.19526951 -0.23615578 0.30182698 0.09480911 -0.32610977 -0.29143974 -0.0047360067
-0.30217355 -0.026679637 -0.1493898 -0.039097 -0.31017944 -0.19961879 -0.1079605 -0.24361233
-0.3173189 0.110896684 0.15679987 -0.31237692 0.2694144 -0.14954168 0.21701317 0.06299456
-0.35148695 -0.14527193 0.057131585 0.039864626 0.2818688 0.14579454 0.08669301 0.12869063
0.28348538 0.29827905 0.13801344 0.12709801 -0.036065802 -0.018947473 0.10262019 -0.017583814
0.044416107 -0.08682685 -0.1266197 0.13105865 0.29802385 -0.025954073 0.18900084 -0.021893788
-0.098022856 -0.2084979 -0.14475697 0.11668739 0.14074576 -0.38074455 0.1760963 -0.006225981
-0.26885387 0.23389375 -0.03922249 0.25979277 0.30179068 0.0764714 0.26038018 -0.060618468
-0.25295717 0.10385087 0.1462241 0.25464457 -0.23623808 0.02672562 0.18906766 0.3113133
-0.2873509 0.19561872 -0.33584464 0.020923216 -0.25707003 -0.24330509 0.2819971 0.10121034
0.0684631 0.32178047 -0.04711693 0.2646393 -0.06211227 0.22678642 0.19894019 0.2463521
0.09332816 -0.05838414 -0.2133665 0.22312702 0.20790337 0.20992394 -0.20487668 -0.27058524
-0.24352849 -0.30121538 -0.22569925 0.3128977 0.29451558 0.14757507 0.012187498 0.18456464
0.017206097 -0.2443933 0.33689013 -0.1515409 0.27698138 0.0028716768 -0.32235482 -0.15533864
-0.30631185 -0.15946859 0.2887057 -0.039285604 -0.045259107 -0.04700328 -0.21618438 0.11159812
0.029673316 0.08670072 0.23692837 0.039754257 0.098317355 -0.05372623 -0.20617655 0.023496568
0.042784967 -0.26142538 -0.2437886 -0.0032040437 0.17564209 0.20139496 -0.25858903 0.058171965
-0.14833649 -0.14012451 -0.119004376 0.08411952 0.2588178 0.32627574 0.3278813 0.24187975
0.0844781 0.024858037 0.28821757 -0.20857893 0.27666056 -0.32751095 0.11788936 0.29638466
0.084905855 -0.17669165 -0.283782 0.25710285 -0.11644894 0.3410951 0.20263767 0.13346234
0.16208489 -0.178837 -0.030846642 -0.28127623 0.18792671 0.11069419 -0.26452246 -0.3527722
0.07049209 0.27073258 -0.3218388 -0.1673442 0.34403113 -0.20463547 0.13797542 -0.01250666
-0.31605244 0.28685108 -0.20949449 0.28481528 0.24293052 0.028342167 0.013306974 0.27697173
-0.22101976 0.23812379 -0.22613712 -0.34000427 -0.009871318 -0.18410382 0.19886133 -0.2848113
-0.15276037 0.10375226 0.10861003 0.27452764 -0.13565034 0.19739044 0.1810953 -0.2921507
-0.21188614 -0.38699254 0.32808438 0.38630527 -0.11733368 -0.16176678 -0.018485093 0.13543418
-0.12000658 -0.21087228 0.10107169 0.23577467 0.017248468 -0.07362328 0.27834597 -0.21870823
-0.028160596 0.0022141775 -0.13995405 -0.038810913 0.099998824 -0.33796182 -0.25583822 -0.13233744

sh_layer.bias f4 [12]
00000000: ee84 9cbb 920f 1aba 0985 0abb e6ab e1bb
00000010: cb8b 69b9 3c6b 823b 4081 fdbb e2de 27bc
00000020: 9dcf 62bb a33a 2b3b 295b 95bc 6601 1f3c
-0.0047765886 -0.0005876954 -0.0021136424 -0.006886947 -0.00022272689 0.0039800685 -0.007736355 -0.0102460105
-0.003460861 0.002612748 -0.018231945 0.009704923

map_layer1.weight f4 [12, 12, 3, 3]
00000000: 48c8 cebd 23e4 15be 9467 8d3d 9988 29bd
00000010: 3fe4 02be 118c a3bd 9b72 383e 3e7c 3bbe
00000020: 479b 053e ecd1 393d 7f59 47bd a995 cc3d
00000030: 5fff 2fbe c789 173e 579d 533d 93af 52be
00000040: 03b2 abbc 098c 63bd 5466 9f3d c062 e53d
00000050: 99c9 0dbe bfd9 5c3e 603e 84bd c8c0 303d
00000060: 73ea 593e 7274 e2bd b514 973d 702c b4bd
00000070: b540 583c ede7 01be fbac bebd e80b 913b
00000080: 41d1 8c3d 32cc febb 1c19 0c3d b284 703c
00000090: 8774 533e d8b9 453e 8a0d 0ebe 70ab 69be
000000a0: cd11 6cbd 5e36 263e 4bc6 da3b 47ff 73bd
000000b0: 5728 3e3e ce80 d0bd d537 ddbd cbc3 473e
000000c0: 1675 633d 8059 26be a04c 6e3e efa0 d93d
000000d0: 442d 1c3e 20f3 51be 85bb 7a3d 8376 47be
000000e0: 4776 0ebe dbb4 263e 9c94 ad3d 7d35 a3bc
000000f0: 08aa dd3d b9aa 9c3d c3db 6d3e 061a 77bd
00000100: dfbe 8abd a5b9 853d 1129 efbc deb7 f4bd
00000110: 7937 333e ed85 2dbe a3bf 44be 6fa4 9d3d
00000120: 04ef 0abe 3e57 a1bd b0d7 29be 92b9 b73d
00000130: 8e00 813d 6f13 bf3d 3873 df3d 9282 5ebe
00000140: b603 693e 2e76 4dbe 818b 32be b73a f5bb
00000150: c39d 2a3e 477e f23c 190b d93d 2b14 153e
00000160: 356b 973d c84a 8a3d 50c3 a53d e6c1 1abe
00000170: 66a9 fa3b e612 b53c dff4 ad3d 15ad 59bc
00000180: e93b 8a3d dbd0 39be 9ca7 42be b0df eebd
00000190: 57e7 2bbe 06b6 2d3e 0375 433d b876 223e
000001a0: b64e f13c 66b6 e6bd 22da b43d cfd6 14be
000001b0: 3224 0dbd 0030 7e3e 98e7 933d 6299 52be
000001c0: 331e 113e 7440 41be c0ca 5cbe 6672 2dbe
000001d0: 215d d5bd cc21 6c3e 74c6 18bd 7837 20be
000001e0: f3c9 0f3e fcc2 4bbe cf8f 023e 0bc6 00bd
000001f0: 3f82 9ebd b419 423e 40be 87bd 7baf 3e3d
00000200: 481f 33be 24da 0abe 4f6a 823d 17d8 46bc
00000210: ab69 4b3e a56f 2cbe 7c83 523e 4cd7 123d
00000220: 8f04 493e 94d4 4c3e 6198 143e 756a 42be
00000230: 1aa1 663e 81d3 17be f55d 0dbd cf62 263e
00000240: a06b b8bd 9f97 a3bd dc69 3abe 93d3 9dbd
00000250: b1b4 20be 9b5e 5e3e 75f4 113e 79f6 debd
00000260: 94c6 313e e74c 0ebe 1751 50be 9b24 3abd
00000270: 5b29 783d 13a8 99bd 965e 323e 8580 093e
00000280: d616 32be 6e32 6c3e 471a 533e b776 ccba
00000290: 47a8 f33d 9434 ef3d 811c b63c 3510 f3bc
000002a0: 5781 33be da3b 87bd 406e 53be 2dca b83d
000002b0: f63c 393e 2023 11be 3a61 b2bd 474a 193e
000002c0: e047 b3bd 3b8c 453e 7e3b f4bd f982 643d
000002d0: 5786 21be 71c4 dc3d 4913 62be 608d 4a3e
000002e0: b87d e8bb b1a6 d9bd cf17 013e 4c97 303e
000002f0: a49d e3bb 0380 813e fea1 e7bd 9b7a ee3c
00000300: a33c 113d 81cf 4dbd 796c 633e 425e 3cbe
00000310: 356e b4bd 1221 2ebe f832 143d 4b18 2f3d
00000320: 0ada e6bd 2a57 cdbd e620 b63d df98 78bd
00000330: c9d7 fdbd f50a fbbd 32f9 74bd 1f12 193e
00000340: 4eb6 473e 89bc 48be ea86 c6bd 1bbe 65bd
00000350: a463 1e3e 4a62 95bd 751a d8bc b519 5ebe
00000360: 05e1 853b 72bc 6cbe b148 20be fe8d a13d
00000370: 1319 383d 74a1 623d c061 353e 445e dd3d
00000380: 57ce 493d a7fd 00bd 6be8 c93d c8ab 403e
00000390: 3d02 da3d 4dbe 163e fd01 ae3d d78f 5dbd
000003a0: c9c1 073e c308 5bbe bcf4 453e ad9c 1dbe
000003b0: 53db 3abd 17c1 48be d43f 99bd eed3 293d
000003c0: 4143 073e d5c9 103e eb1d dfbd 1b1c d6bd
000003d0: 269c 063d 2d99 f33d 1d90 17be 326c 503e
000003e0: c254 34be a9c5 51bd 091f 09be 1436 f73d
000003f0: c643 4e3e ac50 dfbb ce17 ed3d 5fb4 6ebe
-0.10096794 -0.14637809 0.069045216 -0.041390035 -0.12782381 -0.079857 0.18012469 -0.18309113
0.13047515 0.045366213 -0.048669335 0.09989483 -0.1718726 0.14798652 0.051663723 -0.20574789
-0.020958906 -0.05555347 0.077831894 0.11200476 -0.13846435 0.21567439 -0.064572096 0.0431526
0.21280842 -0.110573664 0.073769964 -0.08797538 0.013199021 -0.12686129 -0.09310337 0.004426468
0.068758495 -0.007775807 0.034203634 0.0146800745 0.2064992 0.19309175 -0.13872352 -0.22819304
-0.057634164 0.16231677 0.0066764704 -0.059569623 0.18570076 -0.101808175 -0.10801665 0.19508283
0.055531584 -0.16245079 0.23271418 0.10626399 0.15251642 -0.20502901 0.06121399 -0.19478802
-0.13912307 0.16279928 0.084756106 -0.019922966 0.108234465 0.0764975 0.23228364 -0.060327552
-0.06774687 0.065295495 -0.029194387 -0.119491324 0.1750163 -0.1694562 -0.19213729 0.07697379
-0.1356774 -0.07877968 -0.16586185 0.089709416 0.06298934 0.093298785 0.10910648 -0.21729496
0.22755322 -0.20064613 -0.17436029 -0.007483806 0.16661744 0.02960123 0.1059782 0.14558475
0.07393495 0.06752545 0.080938935 -0.15113029 0.0076495884 0.022103738 0.08493971 -0.013285895
0.06749708 -0.18146078 -0.1900925 -0.11663759 -0.16787468 0.16963968 0.047719013 0.158656
0.029456478 -0.112652585 0.08830668 -0.14535068 -0.034458347 0.24822998 0.072219074 -0.20566323
0.14171676 -0.18872243 -0.21561718 -0.16938171 -0.104181536 0.23059767 -0.037298635 -0.1564616
0.14041881 -0.198986 0.12750171 -0.03143887 -0.07739686 0.18955117 -0.06628084 0.04655407
-0.17492402 -0.13559777 0.06367933 -0.012136481 0.19864528 -0.16839464 0.2055797 0.035849854
0.19630645 0.20002967 0.14511253 -0.18985923 0.22522393 -0.14826776 -0.034513433 0.1624863
-0.09004903 -0.07987904 -0.18204445 -0.0770637 -0.15693928 0.21715777 0.14253409 -0.10886855
0.17360908 -0.13896523 -0.20343433 -0.045445066 0.060586315 -0.07502761 0.17418894 0.13427933
-0.17391524 0.23066112 0.20615493 -0.0015599345 0.11897331 0.1167995 0.022230389 -0.029670814
-0.17529808 -0.06603213 -0.20647526 0.09022937 0.18089661 -0.14173555 -0.08709951 0.14969741
-0.087539434 0.19291775 -0.1192541 0.055788968 -0.15773903 0.10779656 -0.22077669 0.19780493
-0.007095065 -0.10627497 0.12606739 0.17245215 -0.0069462825 0.25292978 -0.113101944 0.029111197
0.03545822 -0.05024672 0.22209348 -0.18395332 -0.08810083 -0.17004803 0.03618142 0.042747777
-0.112720564 -0.10026391 0.08892994 -0.060692664 -0.123946734 -0.12257949 -0.059807964 0.14948319
0.19503137 -0.1960317 -0.096937016 -0.0560895 0.15467697 -0.07294138 -0.026379803 -0.21689494
0.0040856623 -0.23118761 -0.1565273 0.07888411 0.044945788 0.055329755 0.1771307 0.10808995
0.049269047 -0.0314919 0.09858783 0.1881553 0.10644958 0.14721031 0.08496473 -0.054092254
0.13257517 -0.21390061 0.1933164 -0.15391798 -0.04561932 -0.19604908 -0.074828774 0.041461878
0.13209249 0.14139493 -0.10894378 -0.104545794 0.03286376 0.1189445 -0.14801069 0.20353773
-0.17610458 -0.051213894 -0.13390745 0.120708615 0.20143041 -0.0068150368 0.11576806 -0.23310994

map_layer1.bias f4 [12]
00000000: 4aea 333c 6b18 bdbb ebd5 cc3b 4ba9 52bc
00000010: 5598 3a3c 3bd1 453c 3602 9cbb 02eb a8bb
00000020: 0b3b db3b a1d4 94bc 2a1c 123c 41f0 71bc
0.010981152 -0.005770733 0.006251087 -0.012857745 0.011388858 0.01207381 -0.0047610058 -0.0051549682
0.006690388 -0.018167796 0.008917848 -0.014766754

map_layer2.weight f4 [12, 12, 3, 3]
00000000: fcb9 b63d 0530 c03d 8244 10be bb7b abbd
00000010: 7dbb 833c 8e0e 1cbe 3a26 633d 48c1 10be
00000020: eb06 6abc b55d 2b3d cfe4 3bbb 2922 69be
00000030: b589 bcbd 60d1 1bbe 48ae 41be 8d41 043d
00000040: 1d8d 58be 43e6 29be 1791 163e ebc1 a6bd
00000050: ac19 6fbe b06f 4a3e dccd 00be 6e3f 703e
00000060: d58d 07be f7c3 50be 7338 f3bd 321c 18be
00000070: a626 6e3d 82c8 13be 23fb f13d fd35 133e
00000080: 8932 1f3e 3c3e 063e db53 3abe 6688 f23c
00000090: 0e01 0b3d 0568 fd3d ccec 523e f893 0e3e
000000a0: c18f 6abd e510 dcbc 6b9c 43be 1c5a bcbc
000000b0: 0339 7dbd ec4a 333d 5afc d7bc 17c6 2abe
000000c0: c4cc 333e e1a6 83bd 686b 183e bfb5 61be
000000d0: adb0 593e 4aa6 5a3e 71ae 873c aec7 02be
000000e0: adca aebb 1666 5c3e 480d f2bd 4f8f 17be
000000f0: f8a8 18be e66f 243e 2271 51bd 6b63 09be
00000100: 2006 4c3d af24 4dbe 02bc 26be a4dd 073c
00000110: a7b4 62be dbd7 533e f4fa d93b 61fc 2abe
00000120: 1b39 3abe 38e4 4fbe e02f 17be 75ed 06be
00000130: 0ef6 60bd 1340 2ebe 35aa b9bd 971b 333e
00000140: 7200 32be 602b 78be aea5 9a3c c33f 06be
00000150: 4f7e 59be 2a4f 74bd be8e c5bd 25da 4f3e
00000160: 4d4a e5bd 646f cf3c 32f0 d23d 757d 463e
00000170: 7165 2f3d 4d36 ef3c 0192 08be 076e a83d
00000180: 7da9 143e 9130 b5bd 072a cb3d fd60 1fbd
00000190: e388 c83d 3dd1 303e 319f 293d c694 c5bd
000001a0: 9e01 3fbd 4e0f f939 4636 fbbd 3be0 63be
000001b0: ff28 423e 48db 4b3e 0ece 003e 4180 1abe
000001c0: 8f91 3abe b3e4 793e d97b 15be 49f2 853c
000001d0: ed61 b93d 77ff 46be 84af 00be 3ecc 85bc
000001e0: f46e 403e 0c89 513e 4704 2bbd 8a5a 85bd
000001f0: b5ea 69bd 7de9 1b3e 6c13 c5bd 5c98 4cbe
00000200: 8838 a3bc 8d9f 4e3e baa2 b03d 9f98 e63d
00000210: 68a8 bb3d d623 72be 6c11 07be 9146 113d
00000220: 5cce 4ebd cd4b 503c a148 753e c13a 0c3d
00000230: f849 4abd 136b 83be e87f 36bc e882 363e
00000240: df7b fcbd 419a aebd 9fcc 2e3e 6ee3 f4bc
00000250: 3ac8 433e 7fd1 ee3d 544f 233e 74da 273e
00000260: 7dcd 55bd 11b8 cabd f54e 123d 38d0 9fbd
00000270: c460 4cbe 5818 a9bd d502 d63c d213 38be
00000280: f5d9 34be 65c8 e73d adb6 51be e0f0 8ebd
00000290: 3f6b 003e f9be 613e c0fc 673e bfd0 06bd
000002a0: 5147 e73c 9895 00be b2e3 963d 19e7 253e
000002b0: 1023 bdbd 49f1 a7bd 08e5 49bc 2978 e83d
000002c0: df1e c3bd fd99 21bc 8bc5 d73d 3e35 abbd
000002d0: 713a 6bbe 7e8b 8d3d 1606 d13d 1393 033e
000002e0: 2b0b 443e 1ad1 9abd 83d3 33be 31fb 1ebd
000002f0: f3eb 7ebc 2b21 00bc 18f3 a5bd 4602 193c
00000300: 2238 693d 3ce6 17be e444 023d e40a 843d
00000310: 8751 abbc 9ed0 5b3e b5a2 73bb 25c1 9f3d
00000320: c07e 2b3d ad21 b6bd 0041 24be 7084 80bd
00000330: 5ee3 07be 9a1c 12be b61f 973c 2fb2 b7bd
00000340: f519 e93c cf0d 2d3c f686 23be d9e2 83bd
00000350: 94c1 32be d77f 5fbc 3c39 723e 9dc8 18be
00000360: c1b5 f73d eeca 55be e7f4 06bd 27b9 57be
00000370: 8e02 513d 830a b5bd 1cd5 c03d d0a6 05be
00000380: 0cb7 963d 10f5 a5bd 93cb 65be 96fc 56be
00000390: 6c55 b03d cff3 f7bd 21ab 06be db75 33bc
000003a0: 34b9 a43d 5132 0bbd f519 37bd 6b89 9ebe
000003b0: bf21 b9bd 9d3d f7bd 5068 f5bd b8c2 c63d
000003c0: cd06 04be b99a c5bc a32c 023e 0de0 493e
000003d0: 9dd1 c93d 7a44 2b3d 132b 0d3b 5eb8 a43d
000003e0: fcca c6bd 9964 523e 4246 8e3e 090b 02be
000003f0: 0160 eabd b700 03bd b017 0f3e a094 083e
0.089221925 0.09384159 -0.14088634 -0.08373209 0.016080612 -0.15239927 0.055456378 -0.14136231
-0.014283876 0.041837413 -0.0028670316 -0.22766937 -0.09205953 -0.15216589 -0.1891414 0.032289077
-0.2114758 -0.16591744 0.14703785 -0.08142456 -0.23349637 0.19769168 -0.12578529 0.23461697
-0.13237698 -0.20387255 -0.11876001 -0.14854506 0.058142327 -0.14431956 0.11815479 0.14376064
0.15546621 0.13109678 -0.18196051 0.029606055 0.033936553 0.12373356 0.20598143 0.13923633
-0.057266 -0.026863525 -0.19102637 -0.022992186 -0.06182195 0.043772623 -0.026365448 -0.16677128
0.1755858 -0.06428314 0.14884722 -0.22041987 0.21258803 0.21352497 0.016562672 -0.12771484
-0.0053342194 0.21523318 -0.118189394 -0.14800762 -0.14908206 0.16058311 -0.051133282 -0.13416831
0.04981053 -0.20033525 -0.16282657 0.008292589 -0.22139226 0.20687811 0.0066522304 -0.16697837
-0.18185847 -0.20301902 -0.14764357 -0.1317652 -0.054922156 -0.1701663 -0.090656675 0.17490993
-0.17382982 -0.24235296 0.01887783 -0.1311026 -0.21239589 -0.05964581 -0.096463665 0.2029806
-0.111958124 0.02532167 0.1029972 0.19383796 0.04282135 0.029200697 -0.13336946 0.08224111
0.1451778 -0.08847154 0.099201255 -0.038910855 0.09791734 0.17267318 0.041411582 -0.09647517
-0.0466324 0.00047504384 -0.12266211 -0.22253506 0.18960951 0.19907868 0.12578604 -0.15087987
-0.18219589 0.24403648 -0.14598025 0.016350882 0.09051881 -0.1943339 -0.12566954 -0.016332742
0.18792325 0.20462435 -0.041752126 -0.065114096 -0.0571086 0.15225787 -0.09622845 -0.19979995
-0.019924417 0.20178051 0.08624788 0.11259579 0.0916298 -0.23646483 -0.1319024 0.035467688
-0.05048977 0.012713385 0.23953487 0.03423572 -0.04938695 -0.2566763 -0.011138894 0.17823374
-0.12328314 -0.08525515 0.17070244 -0.029893603 0.19119349 0.11661052 0.1594823 0.16391927
-0.052197922 -0.09898389 0.03571983 -0.078033864 -0.19958788 -0.08256596 0.026124397 -0.17976311
-0.17661269 0.11317519 -0.20479842 -0.06979537 0.12540911 0.22045507 0.2265501 -0.03291392
0.028232248 -0.12557065 0.07367648 0.16201438 -0.09235203 -0.08200318 -0.012322672 0.11351044
-0.095273726 -0.009863374 0.10535725 -0.083597645 -0.22971512 0.06911372 0.10206239 0.12849073
0.19144885 -0.07559414 -0.17561154 -0.038813774 -0.015559184 -0.007820408 -0.08103007 0.009338921
0.056938298 -0.14833921 0.03180398 0.0644739 -0.020912899 0.214663 -0.0037175838 0.07800511
0.041868925 -0.08893142 -0.1604042 -0.062752604 -0.13270327 -0.14268723 0.018447738 -0.08969533
0.02845476 0.010562374 -0.15969452 -0.06439752 -0.17456657 -0.013641319 0.23654646 -0.14920278
0.12095214 -0.20878193 -0.0329484 -0.21066724 0.051027827 -0.088398956 0.094156474 -0.13051915
0.07359132 -0.081033826 -0.22440939 -0.20994791 0.08610043 -0.1210705 -0.13151218 -0.010953392
0.08043137 -0.033983532 -0.04470249 -0.30964217 -0.0903964 -0.12072299 -0.11982787 0.097051084
-0.1289322 -0.02412163 0.1271234 0.19714375 0.09854434 0.04181335 0.0021540567 0.08042978
-0.09706685 0.20546187 0.27787977 -0.12699522 -0.114440925 -0.031983104 0.1397388 0.13337946

map_layer2.bias f4 [12]
00000000: 87ac b53b c5be 2fbb 5e0d 66b8 3af6 a6bc
00000010: 819a 61bc 4178 083c 5823 3fbc cd58 ebbc
00000020: 7c98 07bd e996 ffbb ff80 f53b cd2a 763c
0.0055442485 -0.0026816588 -5.4848722e-05 -0.020381082 -0.013769747 0.008329452 -0.011666141 -0.028728867
-0.033104405 -0.0077999723 0.007492184 0.015024853

ex_layer.weight f4 [48, 12, 1, 1]
00000000: b705 55bc 9322 d23e 9be1 15bf ada9 b2be
00000010: d1e4 afbe 08ac 423e bb96 07be 686a df3e
00000020: 12a3 e93e 82e0 033f 50e5 933c 95f0 03be
00000030: 6e7a 4fbe ea59 e43e fc44 80be 6779 1ebf
00000040: 7ff7 a43e 5e34 68be 33ae 103f 5534 843d
00000050: 580e 4ebe 8e84 b43c 38a7 16bf bae2 4a3e
00000060: 176f 7ebe 0459 2ebf e0e2 04bf 0f4a e6be
00000070: 84ef eebe bae6 053f ffa3 2fbf 0e14 24bf
00000080: 48b9 af3e 42c8 163d 52c5 253f 9219 23bf
00000090: 2ae7 12bf d7b3 19be 8528 fcbe cad9 203f
000000a0: 514d b8be 6355 ddbe b637 08bf f3e0 aabe
000000b0: d2ee e7be 3f76 4a3e fede 1e3e 2654 cc3d
000000c0: d374 843d 9f04 2abf c783 323f bdee 72bd
000000d0: 0425 d2be 655a 9e3e cb0c 09bd b6ac c0be
000000e0: be18 81bd 1f06 39bf 1250 103f f9ea bcbe
000000f0: 2051 133e a3a6 84bd 84f1 cfbe fed8 92be
00000100: 0aa4 c43d bdb4 723e 3ecf 22bf 330a 38be
00000110: dbae ae3d f545 30be 356a 043f a7b0 c6be
00000120: c1b1 0ebe 261f f23e 72a4 263f 898d 133f
00000130: e5be 18bf 8bf4 e43e d591 553e 0ffc e1be
00000140: 8de2 44be 53d6 483e 77ad 843c b33c 9fbd
00000150: d8c0 2c3f 8562 28bf 6ad4 0e3f 88e6 51be
00000160: da08 42be 99e6 68be 3a5e 0bbf e32e 093f
00000170: 500c 96be 16d9 45be 617c 293f e9ad 71be
00000180: 8f9a 21bf 98d1 1fbf 9a83 f03e 902b f0bd
00000190: 6f2d 3bba 7121 fa3d d929 9bbe 53e3 20bf
000001a0: 223c 31bf cacc 9cbe f08f 0c3f f6d9 333e
000001b0: ef27 0b3e b663 073f 1c43 21be 0045 793e
000001c0: 53fd 1d3f f3f9 4c3e b879 bfbe 3c6b 2fbf
000001d0: 31fb 253c e317 2abf 2d88 063d 6d42 21bf
000001e0: 84d9 9d3e aed8 19bf 0c84 0c3f cd6c db3e
000001f0: 5fd4 db3e aa4c ac3e 3b09 0cbf a321 f63e
00000200: d6bc 0fbf 195d f9be 072f b83e 0189 303d
00000210: 1633 18be 9fe5 c5bd 3c84 e43e 5a3b c63e
00000220: 3f2e d43d b06c 6cbd 12b4 103f 92cd d23d
00000230: b539 8cbd 8b85 223f 16c5 033d aa35 1d3f
00000240: 280b 9c3e de8f 0fbf 50d7 1b3f 6fb7 033f
00000250: 0796 f83d 1d8b 56be e541 f0be 94c4 eabc
00000260: 60d1 883e 8c94 093f 0a3b 2bbf dcee 21bf
00000270: 9138 b63e f20c 26bf bc50 d3be 513f 31bf
00000280: 084a 90be b8aa d5be eb8f 663e 40a5 9fbe
00000290: 1ab9 febe 1a46 1a3f 4ac2 983e 57b6 223e
000002a0: ff52 b63e 9575 01bf c19a fe3d faa9 0c3f
000002b0: 48c7 1cbd e8e1 d93d a475 9cbe 5ca4 233f
000002c0: 70da 23bf c078 7fbd 9ee5 823e e68a c7be
000002d0: 2a95 39be 8739 febe 42b6 523e e453 303f
000002e0: 95f6 efbe a16f 323f 1734 cebe 7868 6c3d
000002f0: 3b44 cdbe cea5 8f3e 9f44 343e d429 af3e
00000300: 41d8 f43e f209 3bbe b7d8 073e 0feb 1e3f
00000310: b026 063f 16cc 2b3f e238 293f f996 31be
00000320: 2a0e 283e 11a6 243f 0968 e9be bc81 28bf
00000330: 13d0 72bd 8bd6 8abe b739 043f c672 213f
00000340: 644b b03e 2993 d03c e586 103f 5332 c2be
00000350: 976d b23e 1837 193f 6268 1abf 3fde e7be
00000360: 4b47 1abf 711d e53e 75b0 993d d32f 943d
00000370: b132 c3be e9b5 17bf 9daa 19bf 09df fc3e
00000380: 6fe5 bc3e c4e1 afbe 0e14 22bf 383f 8f3e
00000390: 57ae 04be 2aff 003d f908 a6bd fe43 25be
000003a0: f136 29bf 99b8 163f 4d40 2ebf bed8 a3be
000003b0: ac88 11bf 63f8 2dbf 7070 f83c 7b0f 3cbe
000003c0: 8e22 debe ed92 d0be e519 303f cf60 24bf
000003d0: b6a2 2cbf db8f 79be dc6e 19bf 19bb 593e
000003e0: 4888 353f ad3c 1fbf 4919 e2be 56a4 673d
000003f0: df4c dfbe c219 0f3f 6ed5 113d af42 2a3f
-0.013001851 0.41042003 -0.5854737 -0.34895077 -0.3435426 0.19010937 -0.13241093 0.4363587
0.45632225 0.51514447 0.01805368 -0.12884744 -0.20261547 0.4459985 -0.2505263 -0.61903995
0.32220075 -0.22676226 0.56515807 0.06455294 -0.20122659 0.022035863 -0.58848906 0.19813052
-0.24847065 -0.6810458 -0.51908684 -0.44978377 -0.4666711 0.52305186 -0.68609613 -0.640931
0.34321046 0.036812074 0.6475421 -0.6371089 -0.5738398 -0.1501001 -0.49249664 0.6283232
-0.35996488 -0.43229207 -0.5321001 -0.33374748 -0.45299393 0.1977167 0.15514752 0.099769875
0.06467595 -0.664133 0.69732326 -0.05930971 -0.41043866 0.3092834 -0.033459466 -0.37631768
-0.06303547 -0.72274965 0.5637218 -0.3689802 0.14386415 -0.06477096 -0.4061395 -0.28681177
0.096016005 0.23701759 -0.63597476 -0.1797264 0.08529445 -0.17214186 0.5172456 -0.3880665
-0.13934995 0.4728939 0.65094674 0.5763784 -0.5966628 0.4471782 0.20856412 -0.44137618
-0.19227047 0.19613008 0.016195996 -0.07775249 0.67481756 -0.6577533 0.5579287 -0.20498097
-0.18948689 -0.22744216 -0.54440653 0.5358717 -0.2930627 -0.19321093 0.6620541 -0.23601498
-0.6312646 -0.6242919 0.46975404 -0.11727059 -0.0007140254 0.1221341 -0.30305365 -0.6284687
-0.6923238 -0.30624992 0.5490713 0.17563614 0.13589452 0.5288652 -0.15748256 0.24342728
0.6171467 0.20017223 -0.37397552 -0.68523 0.0101306895 -0.664427 0.03284471 -0.6299198
0.30830014 -0.6009625 0.5488899 0.42856446 0.42935464 0.3365224 -0.54701585 0.48072538
-0.56147516 -0.4870384 0.3597338 0.043099407 -0.14863238 -0.096629374 0.44632137 0.38717157
0.10360383 -0.05772084 0.56524765 0.10293116 -0.06846944 0.6348502 0.032170378 0.6141001
0.30477262 -0.560789 0.60875416 0.5145177 0.121379904 -0.20951505 -0.46925274 -0.028658189
0.2672224 0.5374229 -0.6688696 -0.63255095 0.35590032 -0.648635 -0.41272533 -0.6923724
-0.2818148 -0.4173181 0.22515838 -0.31180763 -0.49750596 0.60263216 0.2983573 0.1588987
0.35610196 -0.5057004 0.12431861 0.54946864 -0.038275987 0.10638791 -0.30558503 0.6392267
-0.64005184 -0.062371016 0.2556581 -0.3897316 -0.18123308 -0.49653265 0.20577338 0.68878007
-0.46867815 0.6970158 -0.40274116 0.057716817 -0.40091118 0.28056186 0.17604302 0.342116
0.4782124 -0.18265513 0.13266264 0.6207742 0.5240278 0.67108285 0.6610242 -0.17342748
0.16411653 0.643159 -0.45587185 -0.6582296 -0.059280466 -0.27116808 0.51650566 0.63065755
0.34432518 0.025460796 0.5645583 -0.3792902 0.34849235 0.5984969 -0.60315526 -0.45286748
-0.60265034 0.44749025 0.0750436 0.07235684 -0.38124612 -0.5926195 -0.6002596 0.49388912
0.36893794 -0.34351933 -0.6331185 0.2797792 -0.1295713 0.031493343 -0.0810718 -0.16139218
-0.6609946 0.58875424 -0.68066865 -0.320013 -0.5684917 -0.67957133 0.030327052 -0.1836528
-0.43385738 -0.40737095 0.6878951 -0.6421022 -0.6743578 -0.24371283 -0.59934783 0.21262778
0.70911074 -0.6220196 -0.44159916 0.056553207 -0.43613335 0.5589868 0.035603933 0.66508

ex_layer.bias f4 [48]
00000000: 5c89 3d3c 9f50 7e3c 1d0c 45bd c4d4 cabc
00000010: df9a 0d3c 3108 cdbc ed72 ec39 12ae a3ba
00000020: 1da2 9e3c 596a 1e3c 367c 52bd 3c88 95bb
00000030: fd94 443c b29d 453c 2f71 e03c 9a52 c7bc
00000040: e287 79bc eecb 18bc 3b1d 6fbd 39dc 043c
00000050: 1796 2abd c0b3 1a3c 1fca 35bc 1ad5 69bb
00000060: c899 0e3b 0edc 85bc 5d15 ee3a 7cbd 99bb
00000070: b4a1 0b3b bcd0 a93b d2d8 a0bc ccc0 84bb
00000080: 94ee 03bb b3ec 04bd 9cb2 dfbc a924 45bc
00000090: 92ca 9d3b 8a8c 003b 6273 1fbc a2b8 91bb
000000a0: 18fe 0a3d aaac bb3c 667a fc3b 2fd4 3fbc
000000b0: f93a 20bc 495f 95ba c50d cebb b478 c4bc
0.011568394 0.015522151 -0.048107255 -0.024759658 0.008642881 -0.02502832 0.00045099054 -0.001248779
0.019364411 0.00966891 -0.051387988 -0.0045633595 0.011998412 0.012061523 0.02739772 -0.02433138
-0.015230151 -0.009325964 -0.058377486 0.008109146 -0.041647043 0.00944227 -0.011095553 -0.0035679997
0.0021759141 -0.016340282 0.0018164326 -0.0046917778 0.00213061 0.005182354 -0.019634638 -0.0040513035
-0.0020131217 -0.032452296 -0.027306847 -0.012032666 0.004815408 0.0019615018 -0.009732099 -0.004447059
0.03393373 0.022909481 0.0077050207 -0.011708303 -0.009779685 -0.0011396195 -0.0062882625 -0.023983337

deconv.weight f4 [48, 1, 3, 3]
00000000: 3bfb 833e d403 9bbe f304 46be fbaa eabd
00000010: ac60 a43e ab7b 65be 00a8 23bb 96f1 c2bc
00000020: 3748 9a3e d61f 603d ab60 cabc 5b37 23be
00000030: b648 2d3e f0e6 6a3e 7801 873e a0e7 043e
00000040: ca24 a2be dc35 90be 2364 30be 0282 9ebe
00000050: d65d 313d 58d8 743e 764d ab3d cb3e 5bbe
00000060: 08bc 9dbe 5068 94bd e0b1 633e 601e f13d
00000070: 00e9 1ebc 7693 e53d ebaa a23e 4f4d 8cbe
00000080: 4880 87be c8b7 423e d013 c03d def9 6e3e
00000090: 0000 b0b7 164e a43c 9457 a4be 368d 44be
000000a0: 401d 33bd 38bf 953e 0329 643e a6bc 463e
000000b0: ef39 90be e801 133e f463 a63e ebb1 34be
000000c0: 0b70 a5bd d039 b13d a23b 86be d681 4c3c
000000d0: 3eb9 16be 4b43 1d3e 00d3 20bd 4618 303e
000000e0: c39a 82be a0fc 033d a4ea 8dbe 56ca 823d
000000f0: a61b 8f3d 3bf8 a7bd cb0a c53d 2e8d 24be
00000100: 16e6 493d d68a aabe 564b ea3d 6885 7bbe
00000110: fe04 a5be 5e09 3ebe db28 e9bd 48a2 8e3e
00000120: 5b63 263e 1bef 8d3d eb51 483e bebd 1ebe
00000130: 0632 783e 3ecb 193e cfb9 873e 4f9d 96be
00000140: 06db dbbd eb3b 6ebd 3e82 9c3e bf1a a3be
00000150: 5cc9 8a3e 06c9 64be 22b8 9e3e 4b74 fe3d
00000160: 960a 50bd 000b e13d cb2c 61bd 5017 a0bd
00000170: e8cf 6b3e a89f 193e be6b 07be 76a4 903e
00000180: 9f45 a63e b4f8 8fbe 931d 893e 5fd6 96be
00000190: 23f9 91be 2b03 aabd a63b d5bd 18af 703e
000001a0: 7e1f 71be f830 333e 007e a73c b8fe 133e
000001b0: e86f 12be 0bf2 713d ab61 813b 2b8a 47bc
000001c0: 3099 3c3e e33c 0d3e 802b 6f3e 508f 23be
000001d0: 5694 dc3b 18c2 323e c6b2 22be 2ba4 f9bc
000001e0: 2072 553d d0d2 a8bd 8eda 0c3e 13af 423e
000001f0: af65 9bbe 0e55 95be 8039 f5bd 0ec0 673e
00000200: 204b e03d a054 89be ca4c a3be 08d3 3a3e
00000210: d6c1 2f3d 4673 c83d 9bd1 833d 9ecb 5cbe
00000220: 08e3 713e 3653 1fbd cb57 fe3d a3d4 65be
00000230: 3e31 94be b81b 9bbe 22ca 9c3e 2054 bf3d
00000240: 8ad9 943e f6a0 ae3d a00f 58bd 83ba 003e
00000250: 046c a83e 121e 8a3e 3837 9c3e a6a6 aa3e
00000260: 00ef 4a3d 0094 5a3c 3e1f 9f3e d0a9 283e
00000270: 7adc 8a3e d698 71bd fc5c 9bbe b372 513e
00000280: 16f7 303d cb3b 9abd c073 9f3e 965f a03d
00000290: 2b44 363e 2b5f fd3c 985a 933e 9622 b83c
000002a0: dbf2 f9bd 8681 703e 90bf 5bbe 07e5 a5be
000002b0: d6ca a9bc 6437 83be a3fa 55be 9362 853e
000002c0: a0d7 193e 40d0 2bbd e620 9bbd 5871 443e
000002d0: 5829 7cbe d832 23be 8025 773d 18d2 19be
000002e0: 4632 97be 43c3 583e fa7d a7be 1610 b6bd
000002f0: 1b4d a53e a607 5cbe 0081 0d3d 5fec 923e
00000300: 6bbb 4abd 2b70 0a3c f02b 14be 9b7d 9fbe
00000310: e0f5 9fbd 8213 9dbe 66c6 893e 7e6e 50be
00000320: a785 873e 00bc ecbb e329 7e3e ae95 a1be
00000330: 40a8 66be 10a4 803e d65f 863e 23ce 03be
00000340: 9e2b 723e 767b a53e e8e6 913e 7e4b 46be
00000350: 8324 293e 200f 533e 16b6 9abd 80e7 45bd
00000360: 2342 7b3e 2e19 773e bee4 6bbe bb4e 1ebe
00000370: 84db a83e 68dc 04be eb9c a0bc 2b2e 6cbc
00000380: 901b 1c3e f32a 32be 3810 4a3e 13f8 463e
00000390: 765f 7f3e 8efb 98be db58 d8bd 0cbb 893e
000003a0: db02 1abe 9be0 173e 765d 8fbd c66a 4ebe
000003b0: cbf7 0ebd 96b4 fb3d c060 a43c 7328 6e3e
000003c0: a087 7dbd 00ba 7fbe 4270 9abe ebb2 1c3d
000003d0: b3d4 093e ebf2 893c de3e a1be 140d 88be
000003e0: 000e 0dbb eb2b 69bd 0c38 a6be fef2 1bbe
000003f0: ecd5 8fbe 8014 32bd ab96 733e ee6a 94be
0.2577761 -0.30276358 -0.19337825 -0.11458393 0.32105005 -0.22410457 -0.0024971962 -0.023796838
0.3013322 0.05471786 -0.024704298 -0.15939085 0.16922268 0.22939658 0.26368308 0.12978983
-0.31668693 -0.2816609 -0.17225699 -0.30958563 0.04330238 0.23910654 0.08364384 -0.21410672
-0.3080752 -0.072464585 0.22235823 0.11773372 -0.009699106 0.112097666 0.31771025 -0.27402732
-0.26465058 0.1901542 0.09378779 0.23337504 -2.0980835e-05 0.020056766 -0.32098067 -0.19194493
-0.043729067 0.2924745 0.2228127 0.19407901 -0.281692 0.14356196 0.32498133 -0.17645995
-0.08078011 0.08653605 -0.2621737 0.012482127 -0.14719102 0.15357701 -0.039263725 0.1719676
-0.255087 0.032223344 -0.2771808 0.06386249 0.069876954 -0.08201643 0.09621199 -0.16069481
0.049291693 -0.33309048 0.114401504 -0.24562609 -0.3223037 -0.18558261 -0.11384746 0.27858186
0.16248839 0.069303714 0.19562499 -0.15502068 0.24237832 0.15018937 0.26508948 -0.29416892
-0.10735135 -0.05816261 0.30568117 -0.31856343 0.2710675 -0.2234231 0.30999857 0.12424525
-0.050791346 0.10988426 -0.05497436 -0.078169465 0.23028529 0.1500231 -0.13224694 0.28250474
0.32474992 -0.28119433 0.26780376 -0.29460427 -0.2851039 -0.083013855 -0.10411768 0.23504293
-0.2354717 0.17499149 0.020445824 0.14452636 -0.14300501 0.05906872 0.0039484105 -0.012178938
0.18417811 0.13792758 0.23356438 -0.15972638 0.00673155 0.17456853 -0.15888509 -0.03047379
0.05211079 -0.08243334 0.13755247 0.19012098 -0.30351016 -0.29166454 -0.11973858 0.22631857
0.10951829 -0.26822376 -0.31894523 0.18244565 0.042909466 0.09787612 0.064364634 -0.21562049
0.23621762 -0.038897716 0.12419089 -0.22444396 -0.2894382 -0.30294585 0.30622965 0.093422174
0.2907222 0.085267946 -0.052749276 0.12571149 0.3289491 0.26976067 0.3051088 0.33330268
0.049544334 0.01334095 0.31078523 0.16471028 0.27121335 -0.058983646 -0.3034438 0.2045391
0.04320439 -0.07530936 0.31142998 0.078307316 0.17799442 0.030929169 0.28780055 0.02247743
-0.12204524 0.2348691 -0.21459794 -0.32401296 -0.020726603 -0.25628197 -0.20896392 0.2605177
0.1502366 -0.04194665 -0.07574634 0.19183862 -0.24625146 -0.15937364 0.060338497 -0.1502155
-0.29530543 0.21168236 -0.327133 -0.08889787 0.3228539 -0.21487293 0.034546852 0.28695962
-0.049495142 0.0084495945 -0.14469886 -0.31150517 -0.07810569 -0.30678946 0.26909178 -0.2035465
0.26469156 -0.00722456 0.24820666 -0.3155951 -0.2252512 0.2512517 0.26244992 -0.12871604
0.23649451 0.32320756 0.2849648 -0.19364735 0.16517834 0.20611238 -0.075542614 -0.04831648
0.24536948 0.24130699 -0.23036477 -0.15459721 0.32979977 -0.12974703 -0.019606074 -0.014415304
0.1524489 -0.17399196 0.1973275 0.1943057 0.24938759 -0.2987942 -0.10563823 0.26900518
-0.15040152 0.14831774 -0.07000248 -0.20157918 -0.034904283 0.122903034 0.020065665 0.23257618
-0.06189692 -0.24973297 -0.3016377 0.038256567 0.13460045 0.016839465 -0.31493276 -0.26572478
-0.0021523237 -0.05692665 -0.32464635 -0.15229413 -0.28092897 -0.04347658 0.23787944 -0.2898783

deconv1.weight f4 [4, 48, 3, 3]
00000000: 9c11 16bd dc46 ce3d 6eda cb3d 7b50 0bbb
00000010: 4892 ee3d 9e72 b0bc 5134 503d 2439 e4bd
00000020: 03fb 02be 11d3 fcbc 1e05 52bd 5058 b03d
00000030: a79b 183d 7e67 4f3d e0be f73c f257 b1bd
00000040: 386b 283d fdb9 a2bd e5a3 dfbc 3b0d 5ebd
00000050: f50f 4f3c 95c3 a0bd 0450 a2bd e2a6 7bbd
00000060: 95bb 80bc 0537 a63d 62fe 563d 6d36 4e3d
00000070: cfcf 853d 4c0f cabd b69b da3b 57d0 a3bc
00000080: 2f50 bfbd 8502 913d 7703 f6bc ed6b d1bd
00000090: 4ef8 55bd ef8c d63d 55e3 863d 8140 8f3d
000000a0: bfc5 a0bd 41ab 053e c5b6 adbb 8b9c ed3c
000000b0: 4c65 b9bd 46df ee3d 2f2f ebbd d66b cc3d
000000c0: 2ff3 9a3d e90c 313d 16e0 96b9 c1eb b6bd
000000d0: 6634 dbbd 4bd7 edbb b5f5 b43d 783c cebd
000000e0: 1fbe 91bc cc56 c1bd 99ae e83c dbe5 4a3d
000000f0: ca26 383c a140 d83d 5aec 223d dc80 e2bd
00000100: 7c5d f53c 52e9 a33d 2db8 f33a d45a 1b3c
00000110: f6a0 b5bd 7c3f 893d bce9 e33b 43e8 443d
00000120: dd9b 63bd 1d26 8e3d 6e53 0dbd 4f53 663d
00000130: 0c8f 743b 80a5 dd3c df83 86bd 35cc d9bb
00000140: c292 673d 51c9 a9bd d6b6 1bbd 41f9 7a3d
00000150: 7255 1bbd bb2a 053e 30ad d23c c912 3e3d
00000160: 050f 54bd 0a8f 463d 662b cd3d 94e8 3e3d
00000170: a46a 4dbd d627 d03d 0fcc a9bc 4769 8dbd
00000180: 9035 9a3c cccc 0cbc 5145 5cbd 1f58 7d3c
00000190: 981a 79bd f73f bb3d 8afa d53c be6e f03d
000001a0: 2a30 a2bc c135 003a b034 e3bc 409a 8d3d
000001b0: 292b 943d 9da5 6d3d e3b2 59bd 8090 2cbc
000001c0: d89a e1bd 6d53 3fbb 23bb e23d f272 22bd
000001d0: 9f73 37bd af5c 7bbd b628 83bd c93c dabd
000001e0: 1692 debd 6081 d8bd 39eb 913d 3e6f 583d
000001f0: fccc 763c 54f5 9fbd e2f4 c6bd 0034 8ebd
00000200: a600 a8bd 0ebb 983d 9286 153d 94ac 01be
00000210: 60fd 253d fd93 683c 3859 dabd 7183 acbd
00000220: 6ba6 363d b070 023c 653e 7c3c 4f86 75bd
00000230: 55a0 853c d8f0 c43d d399 8bbd 3965 93bd
00000240: 2580 a33d 2105 b1bd cceb 9c3d 00e3 ab3d
00000250: 152e f9bb 8503 f33d b976 c43d 8957 a9bd
00000260: 8f4d dcbd 1acc ba3d 7586 933c d178 993d
00000270: 7325 30bd 4bc3 88bd 6d68 75bc dedb 5dbd
00000280: 45ca 42bd ce15 98bd 3513 53bd 1ef1 91bd
00000290: 2816 b73d 03c5 87bd 5f3b 35bd 3e0a 7b3c
000002a0: d207 983d 7ced aabc 56f3 773d 0e84 683c
000002b0: a19a 14bd c576 e13c 3915 613d 65b7 083e
000002c0: 7f6c cdbc e08f c8bc 43fc db3d 7c4d 023b
000002d0: bb3d ec3d b029 333d 4f7a 893d d208 bdbd
000002e0: 7fda acbd 3cb5 efbc 907c 1abd 8c3a 6bb9
000002f0: 55d5 8ebc 4647 d2bc df92 4cbd c80a cfbd
00000300: a372 50bd 7370 e1bd 30be ec3d 4d49 cdbd
00000310: f03c 9fbd 770e 933d faeb af3d a438 8abb
00000320: 801b 1c3d c777 dcbc 81c7 9b3d deac a7bd
00000330: 059c a53d 9bd1 90bd 8125 c63c 7a2d 46bd
00000340: cab9 f03c b2dc 38bd 7570 90bd 74ca a2bd
00000350: 31ad 35bd 64fe c53d a225 adbd d9bf e23d
00000360: 9c6d a93d e623 5a3d 9ef0 0b3d e2d4 9dbc
00000370: e9cc a13c 3fd5 abbd b50c babc 5f0d 813c
00000380: 43ae 6bbd 2588 613c 699e b2bd 330f f83d
00000390: d2d1 223d 2526 9fbd f32b 3ebd 39eb 8b3d
000003a0: b9af 103c 7957 343d 80d7 8c38 fb31 d83d
000003b0: 6cd2 7e3d 8141 413c 6141 aabd 2786 8dbd
000003c0: caae 813d 2f81 c93c d47e 39bd 28d1 70bd
000003d0: e95c 96bb 3f61 a3bd 70d0 313d 2e99 be3d
000003e0: fa21 b73d aa0a 313d 5a1d b93d 3de5 40bd
000003f0: 320b 2f3d 73d3 b5bd 40dd fabc b6b8 893d
-0.036637887 0.10072109 0.099537715 -0.0021257687 0.11648995 -0.021539029 0.050831143 -0.11143711
-0.12791066 -0.030862363 -0.05127441 0.08610594 0.037257817 0.050635807 0.030242383 -0.08659352
0.041117877 -0.07945631 -0.02729983 -0.054211836 0.012638082 -0.07849804 -0.07925418 -0.06143845
-0.015714446 0.08115963 0.052488692 0.050344873 0.06533777 -0.09866199 0.006671394 -0.019996805
-0.09341466 0.07080559 -0.030030949 -0.10225663 -0.052238755 0.104761 0.06586329 0.06994725
-0.07850217 0.1305361 -0.005301329 0.02900531 -0.09052524 0.1166368 -0.11483609 0.099815056
0.07565915 0.043225203 -0.00028777187 -0.08931685 -0.107033536 -0.007258331 0.088359274 -0.10070127
-0.017790852 -0.09440383 0.028403567 0.049535614 0.011239717 0.10559202 0.039776184 -0.11059734
0.029951803 0.08003487 0.0018594317 0.009482104 -0.088685915 0.06701562 0.0069553535 0.048073065
-0.055568565 0.06940863 -0.034503393 0.056231793 0.0037316708 0.027056456 -0.06568121 -0.006646658
0.056536444 -0.08290351 -0.038016163 0.061272863 -0.037923284 0.13004582 0.025717348 0.046404634
-0.051772136 0.048476256 0.10018043 0.046608523 -0.05015053 0.10163848 -0.020727186 -0.06904846
0.018824369 -0.008593749 -0.053777043 0.015462904 -0.060816377 0.0914306 0.026120443 0.117398724
-0.019798357 0.00048908225 -0.027735084 0.069141865 0.07234795 0.05801927 -0.053149115 -0.010532498
-0.11015862 -0.0029194013 0.1107085 -0.0396604 -0.044788 -0.061367687 -0.06404249 -0.10656125
-0.108677074 -0.10571551 0.07124943 0.052840464 0.0150635205 -0.078104645 -0.097146764 -0.06943512
-0.08203249 0.07457553 0.03650529 -0.1266349 0.04052484 0.014195439 -0.106615484 -0.08423508
0.044592302 0.007961437 0.015395735 -0.05994254 0.016311804 0.0961625 -0.06816449 -0.07197041
0.07983426 -0.086435564 0.07662162 0.08392906 -0.0076043704 0.11865906 0.09592957 -0.08268649
-0.10756981 0.091209605 0.01800845 0.07493747 -0.043004464 -0.06677874 -0.01497851 -0.05416476
-0.04755618 -0.07426034 -0.05153199 -0.071260676 0.08939773 -0.06629374 -0.044246074 0.015322266
0.074233666 -0.020865194 0.060534798 0.014191641 -0.036280278 0.027522454 0.05495188 0.1335121
-0.025076149 -0.024482667 0.107414745 0.001988261 0.11535212 0.04374093 0.06712782 -0.09230198
-0.08440112 -0.029261224 -0.03771645 -0.00022433157 -0.017435709 -0.025668751 -0.049944755 -0.10109478
-0.050890576 -0.11007776 0.11559713 -0.10023747 -0.07775295 0.07180493 0.08589931 -0.004218178
0.038112164 -0.026912583 0.07606412 -0.08187269 0.08086399 -0.07071229 0.024187805 -0.048383214
0.029385466 -0.045132346 -0.070526995 -0.07948771 -0.04435462 0.09667662 -0.084544435 0.11071748
0.082728595 0.05325689 0.034165017 -0.01926655 0.01975103 -0.08390283 -0.022711137 0.015753446
-0.057539236 0.01376537 -0.087216206 0.12112274 0.03975088 -0.07770947 -0.046428632 0.068319745
0.008830958 0.044028733 6.71586e-05 0.10556408 0.062212393 0.0117954025 -0.08313251 -0.06910353
0.063321665 0.024597732 -0.04528697 -0.058793217 -0.0045887125 -0.079775326 0.043411672 0.093065605
0.089420274 0.04322306 0.090388015 -0.04709362 0.042735286 -0.08878221 -0.030623078 0.06724684

deconv1.bias f4 [4]
00000000: 6c8e 743c 7561 9d3c c2ae 543c 3557 3c3c
0.014926534 0.01921151 0.012981119 0.011495401
