model.pth (torch, 77110 bytes, 13 tensors)

fe_layer.weight f4 [48, 1, 7, 7]
0	0x3cb8c362	0.022554103
1	0xbd4d7fb1	-0.050170604
2	0x3e6f9640	0.2339716
3	0x3e708f82	0.23492244
4	0x3ea94d2c	0.3306669
5	0x3ea53580	0.3226738
6	0xbdc0f933	-0.09422531
7	0xbe8aa75c	-0.2708081
8	0xbe9f08e3	-0.31061468
9	0xbd6e5368	-0.05818501
10	0xbe9d5522	-0.30729014
11	0x3ea5347d	0.32266608
12	0xbe8ef62a	-0.27922183
13	0xbd513ee2	-0.05108536
14	0xbd1adcc6	-0.037808202
15	0x3e71e6ea	0.23623243
16	0xbda73780	-0.08164883
17	0x3e12a2b7	0.14319883
18	0xbe50b58f	-0.20381759
19	0xbd1a9616	-0.03774079
20	0x3e84e88d	0.25958672
21	0xbd0b5a69	-0.03402177
22	0xbe97bec8	-0.29637742
23	0xbe781f18	-0.24230611
24	0xbea5879d	-0.32330027
25	0x3e2be593	0.16786794
26	0x3dc3b326	0.09555654
27	0x3db1dea8	0.086850464
28	0xbe44de7b	-0.19225495
29	0xbe39e1be	-0.1815252
30	0x3d4b7dd2	0.04968054
31	0x3e8f576c	0.27996385
32	0xbe4dc47f	-0.20094489
33	0xbe06f52b	-0.13179462
34	0xbdb13978	-0.086535394
35	0x3ea19aaf	0.31563327
36	0x3dcb00f7	0.099122934
37	0xbc6a47c1	-0.014299334
38	0x3ea2568c	0.31706655
39	0x3e8791b7	0.2647836
40	0xbdb4b719	-0.088239856
41	0xbe517939	-0.20456399
42	0xbddd33b2	-0.10800876
43	0xbe0c388d	-0.13693447
44	0xbe60dba1	-0.21958782
45	0xbe1f19b9	-0.15537156
46	0x3e90ba5d	0.28267184
47	0x3e1f8ba8	0.15580618
48	0x3e92f9b1	0.28706124
49	0x3da3523b	0.079746686
50	0xbdd0b3b3	-0.10190525
51	0x3cdf53b4	0.027261592
52	0x3ea7fcb8	0.32809997
53	0x3e0e7553	0.13911943
54	0x3ea44187	0.32081243
55	0x3d12dab9	0.03585312
56	0xbe8b9c22	-0.27267557
57	0xbce7af28	-0.028281763
58	0x3db0cec4	0.086331874
59	0xba9ac2bf	-0.0011807306
60	0xbe02f908	-0.1279031
61	0xbe850d88	-0.25986886
62	0x3e1df091	0.154238
63	0x3d548d18	0.05189237
64	0x3e980f82	0.29699332
65	0xbe9d40b2	-0.3071342
66	0xbcd6b8e9	-0.026211219
67	0x3e5873b6	0.2113789
68	0xbe87820d	-0.26466408
69	0x3e73d517	0.23811756
70	0x3d56e57c	0.052464947
71	0x3e5eeac4	0.21769243
72	0x3ea651a0	0.3248415
73	0x3e5b1f78	0.21398723
74	0xbe969111	-0.29407552
75	0xbd987118	-0.07443446
76	0x3e74a10e	0.23889562
77	0xbe76dc04	-0.24107367
78	0x3e787680	0.24263954
79	0xbe8e61ef	-0.27809092
80	0xbe81ad5f	-0.25327584
81	0x3e9f6cc3	0.31137666
82	0x3e89e553	0.26932773
83	0xbe2a5806	-0.16635141
84	0x3e3aeeaf	0.18255113
85	0xbd4d53f3	-0.05012889
86	0x3e013cfc	0.1262092
87	0x3e2e4459	0.1701826
88	0x3e799442	0.24372962
89	0xbea22aed	-0.31673375
90	0xbeaf4586	-0.3423273
91	0xbd6cbfc4	-0.05780007
92	0x3dea3c35	0.11437265
93	0xbe621675	-0.22078879
94	0x3de623bd	0.11237285
95	0xbe9e03cc	-0.30862272
96	0xbda3238f	-0.07965767
97	0xbdda8893	-0.10670581
98	0x3e82373a	0.2543276
99	0xbe8d5863	-0.27606496
100	0xbe23357b	-0.1593837
101	0x3e4b1fe3	0.19836383
102	0x3e9a33b9	0.30117586
103	0x3e7f5b23	0.2493711
104	0xbe978206	-0.29591388
105	0x3ded5a21	0.11589456
106	0x3d91cc5d	0.07119057
107	0x3e15532a	0.14582506
108	0xbdebee78	-0.11520094
109	0x3ea8b0c8	0.32947373
110	0xbdcb0861	-0.099137075
111	0x3e4c28f5	0.19937499
112	0x3e8963e6	0.2683403
113	0xbe31fd17	-0.17381702
114	0xbe8713b1	-0.2638221
115	0xbd8758d2	-0.06608738
116	0xbde4612f	-0.11151349
117	0xbeb073e7	-0.34463426
118	0x3e03ffa7	0.12890492
119	0x3db1245d	0.08649514
120	0xbe8476a7	-0.25871775
121	0xbe94c433	-0.29055938
122	0xbe491441	-0.19636633
123	0x3e805281	0.25062945
124	0x3e0526f5	0.13003142
125	0x3e17d5c0	0.14827633
126	0xbcc1db30	-0.023664087
127	0x3d9eb1f8	0.077487886
128	0xbe3ef1b9	-0.18646897
129	0xbdd375a8	-0.103251755
130	0x3e696044	0.22790629
131	0x3d85a7e5	0.06526164
132	0xbe2008e8	-0.15628397
133	0xbb35b8b5	-0.0027728502
134	0xbea46ae3	-0.32112798
135	0xbea58ac3	-0.3233243
136	0xbda054cf	-0.07828676
137	0x3daedad4	0.08537832
138	0xbe8c2725	-0.27373615
139	0x3dfa4ca3	0.122216485
140	0x3b4e6431	0.0031492824
141	0xbe9548d3	-0.29157123
142	0xbea9b1dc	-0.33143508
143	0x3da76a75	0.08174602
144	0xbe9edf3c	-0.3102969
145	0x3e41c126	0.18921337
146	0xbea0d477	-0.31412098
147	0xbd330252	-0.043703385
148	0x3e88e0bd	0.26733962
149	0x3dc34370	0.09534347
150	0xbe5c200d	-0.21496601
151	0xbe87ff4b	-0.2656196
152	0xbe54e796	-0.20791468
153	0xbe706c11	-0.23478724
154	0xbd572045	-0.05252101
155	0xbe6a622a	-0.22889009
156	0xbe7875a3	-0.24263625
157	0xbe6088fe	-0.21927258
158	0xbc329cf9	-0.010901683
159	0x3e601fb3	0.21887092
160	0xbe1a058b	-0.15041177
161	0x3e47b593	0.19502859
162	0x3da0dd37	0.078546934
163	0x3c9e28d7	0.019306583
164	0xbeb27d1c	-0.34861076
165	0xbe97f442	-0.2967854
166	0xbcc8921e	-0.024483737
167	0x3e585a7c	0.21128267
168	0xbe3425a6	-0.17592487
169	0x3dd0bdb8	0.10192436
170	0x3e679c67	0.22618257
171	0x3e645ad2	0.2230027
172	0x3eb2fac0	0.34956932
173	0x3dc08c91	0.09401811
174	0x3e4db952	0.20090225
175	0x3ae990be	0.0017819626
176	0x3e2b7c29	0.16746582
177	0x3e0802a7	0.13282262
178	0xbe9d6d2a	-0.30747348
179	0xbe55e7d4	-0.20889217
180	0xbd8b6297	-0.06805914
181	0x3d9c879e	0.076430544
182	0x3e4e998e	0.20175764
183	0xbe926b62	-0.28597552
184	0x3cba0471	0.022707196
185	0x3e0d79df	0.13816021
186	0xbe30c17a	-0.17261305
187	0x3e851892	0.25995308
188	0xbd049053	-0.0323642
189	0xbe2883e6	-0.16456565
190	0xbd0c9ae7	-0.034327414
191	0xbea98fb4	-0.3311745
192	0x3e0fc111	0.14038493
193	0xbdd2da34	-0.10295525
194	0xbc288e8f	-0.010287895
195	0x3d997c65	0.074944295
196	0xbdf8cae9	-0.12148077
197	0x3e480fb6	0.19537243
198	0xbe75f879	-0.24020566
199	0x3e88ceb0	0.2672019
200	0xbe8cf68e	-0.27531856
201	0xbe440180	-0.19141197
202	0x3e807da5	0.2509586
203	0xbe9c2182	-0.30494314
204	0xbd0b45e6	-0.034002207
205	0xbe144cc0	-0.14482403
206	0x3df285aa	0.11841901
207	0x3e0e1b5f	0.13877629
208	0xbe85b16f	-0.26111934
209	0x3d88b1ef	0.06674563
210	0xbe8de740	-0.27715492
211	0x3e2b96b8	0.16756713
212	0x3eaebcb3	0.3412834
213	0xbe772fff	-0.24139403
214	0xbccf8c0e	-0.025335338
215	0x3e54412f	0.2072799
216	0xbde0b003	-0.109710716
217	0x3e8931fa	0.26795942
218	0x3e22834e	0.15870401
219	0xbe235323	-0.15949683
220	0xbe8dbd48	-0.27683473
221	0x3df35c36	0.11882822
222	0xbcca99c2	-0.02473152
223	0x3ea0919a	0.31361085
224	0x3e7d1870	0.24716353
225	0xbea4572f	-0.32097766
226	0xbe6beda3	-0.2303987
227	0x3dc3e808	0.09565741
228	0xbe3798cf	-0.17929386
229	0xbe67767b	-0.2260379
230	0xbe92ffed	-0.2871088
231	0x3d67473a	0.05646441
232	0xbe6c268e	-0.23061582
233	0x3c64c779	0.013963574
234	0xbe6bf7fb	-0.23043816
235	0x3e95f770	0.29290342
236	0xbe52c93e	-0.2058458
237	0xbcc8b86f	-0.024502007
238	0x3e7db3cb	0.24775617
239	0xbd8211e7	-0.06351071
240	0x3def90bf	0.1169753
241	0x3eb08ee7	0.34484026
242	0x3cc54687	0.024081482
243	0x3ea2094c	0.31647718
244	0xbe86e642	-0.26347548
245	0xbdc22d44	-0.0948129
246	0xbd5980b5	-0.05310126
247	0x3d994a5b	0.07484885
248	0xbe9f7a63	-0.3114806
249	0x3dedfd37	0.116205625
250	0x3e7c12f4	0.24616605
251	0x3e0964e4	0.13417393
252	0xbe8c5f27	-0.27416345
253	0xbe06f43d	-0.13179107
254	0xbdc35703	-0.095380805
255	0xbea66962	-0.32502276

fe_layer.bias f4 [48]
0	0x00000000	0.0
1	0x00000000	0.0
2	0x00000000	0.0
3	0x00000000	0.0
4	0x00000000	0.0
5	0x00000000	0.0
6	0x00000000	0.0
7	0x00000000	0.0
8	0x00000000	0.0
9	0x00000000	0.0
10	0x00000000	0.0
11	0x00000000	0.0
12	0x00000000	0.0
13	0x00000000	0.0
14	0x00000000	0.0
15	0x00000000	0.0
16	0x00000000	0.0
17	0x00000000	0.0
18	0x00000000	0.0
19	0x00000000	0.0
20	0x00000000	0.0
21	0x00000000	0.0
22	0x00000000	0.0
23	0x00000000	0.0
24	0x00000000	0.0
25	0x00000000	0.0
26	0x00000000	0.0
27	0x00000000	0.0
28	0x00000000	0.0
29	0x00000000	0.0
30	0x00000000	0.0
31	0x00000000	0.0
32	0x00000000	0.0
33	0x00000000	0.0
34	0x00000000	0.0
35	0x00000000	0.0
36	0x00000000	0.0
37	0x00000000	0.0
38	0x00000000	0.0
39	0x00000000	0.0
40	0x00000000	0.0
41	0x00000000	0.0
42	0x00000000	0.0
43	0x00000000	0.0
44	0x00000000	0.0
45	0x00000000	0.0
46	0x00000000	0.0
47	0x00000000	0.0

sh_layer.weight f4 [12, 48, 1, 1]
0	0xbeb4cc34	-0.35312045
1	0x3dda343e	0.10654496
2	0x3d4c542e	0.049884968
3	0x3df0f6a6	0.117657945
4	0x3e350178	0.17676342
5	0xbd0c3f4d	-0.034240056
6	0xbe62ab2c	-0.2213561
7	0xbc790c75	-0.015200724
8	0x3c063323	0.008190903
9	0xbbb6cfdd	-0.0055789785
10	0xbe3a1e6f	-0.18175672
11	0xbdf1314b	-0.1177698
12	0x3d109c0b	0.035305064
13	0x3e992ba8	0.2991612
14	0xbe12f965	-0.14352949
15	0x3e4aba28	0.19797575
16	0xbd82301c	-0.063568324
17	0x3e0e6d77	0.13908945
18	0xbe20fd96	-0.15721735
19	0x3dc22f6b	0.094817005
20	0xbe6ca9bd	-0.23111625
21	0xbdac2285	-0.084050216
22	0x3e2890a9	0.16461433
23	0x3cbce37f	0.023057697
24	0x3e614861	0.22000267
25	0xbe89cf04	-0.26915753
26	0xbd879da3	-0.06621864
27	0x3ccb18db	0.024792125
28	0x3e88d095	0.26721635
29	0xbd9f5df6	-0.077815935
30	0xbe0701b0	-0.13184237
31	0xbd804dfe	-0.06264876
32	0x3e8f1a26	0.27949637
33	0x3e90ddd8	0.28294253
34	0xbe8f0540	-0.27933693
35	0xbd259fd8	-0.040435642
36	0x3dd64c92	0.104638234
37	0x3eaf6e23	0.34263715
38	0x3e672dd2	0.22576073
39	0x3e698a82	0.22806743
40	0x3d1f0467	0.038822558
41	0x3e702ca8	0.23454535
42	0x3e8c97b9	0.27459505
43	0x3e4f25a9	0.2022921
44	0xbe9ff3a0	-0.3124056
45	0xbe483b27	-0.19553815
46	0xbcce5223	-0.02518565
47	0xbe7deb88	-0.2479688
48	0x3ccf339d	0.025293166
49	0x3e522430	0.20521617
50	0xbe92e5a1	-0.28690818
51	0x3e57b59a	0.21065369
52	0x3d718c9f	0.058971997
53	0x3e898021	0.26855567
54	0xbea98976	-0.33112687
55	0xbe8d93e7	-0.27651903
56	0x3e8bd5b2	0.27311474
57	0x3e8868f7	0.26642582
58	0xbdd34a5a	-0.10316916
59	0x3cbba9b8	0.022908077
60	0x3dbb2d7d	0.091395356
61	0xbeaac8c7	-0.33356306
62	0x3e4a54c9	0.19758905
63	0x3e1125c9	0.1417457
64	0x3d8efa3c	0.06981322
65	0xbdebf887	-0.11522012
66	0xbea7bea9	-0.3276265
67	0x3e29e481	0.16591074
68	0xbea3b465	-0.31973568
69	0x3d38645f	0.045017596
70	0x3e5a504b	0.21319692
71	0xbea04543	-0.31302842
72	0x3deffefc	0.11718556
73	0x3cdd9859	0.027050184
74	0x3eb42f47	0.3519232
75	0xbe0ade23	-0.13561301
76	0xbdba7f6e	-0.091063365
77	0x3db6944f	0.08915006
78	0xbdb0844d	-0.08618984
79	0x3e9301d7	0.2871234
80	0x3d909f95	0.07061688
81	0xbe038949	-0.12845339
82	0xbe06500a	-0.1311647
83	0x3d3902f1	0.04516882
84	0xbeadeab1	-0.33968118
85	0x3eb17723	0.34661207
86	0x3d87696c	0.066119045
87	0xbded4479	-0.11585326
88	0x3e5693d2	0.20954826
89	0xbe981a30	-0.2970748
90	0x3e56bb90	0.20969987
91	0x3dba033e	0.0908265
92	0xbe87b074	-0.2650181
93	0x3e22281e	0.15835616
94	0xbeaace9b	-0.33360752
95	0xbe42ad9a	-0.19011536
96	0x3e905e8c	0.28197134
97	0x3ea607de	0.32427877
98	0xbe404a55	-0.18778355
99	0xbd55c857	-0.052193012
100	0x3d94929c	0.07254526
101	0x3b98af73	0.004659587
102	0x3e9a42c8	0.30129075
103	0x3ce76f3d	0.028251285
104	0xbb23467f	-0.0024913845
105	0xbe99bfca	-0.30029136
106	0x3e147e0a	0.14501205
107	0x3e357c65	0.17723234
108	0x3e30ab00	0.17252731
109	0x3d0a9a2d	0.03383844
110	0x3e80d199	0.2515991
111	0xbe376dca	-0.17912975
112	0x3e93417e	0.28760904
113	0x3e40d55e	0.18831393
114	0x3d55e5d1	0.052221123
115	0x3e859d3f	0.26096532
116	0xbe223232	-0.1583946
117	0xbe1cc200	-0.1530838
118	0xbe34ee2e	-0.17668983
119	0xbe2f0cfe	-0.170948
120	0x3e994488	0.29935098
121	0xbde18427	-0.11011534
122	0xbeb3d509	-0.3512347
123	0xbdf4a1f9	-0.11944956
124	0x3de114d4	0.10990301
125	0xbea764e6	-0.32694167
126	0xbdf87fec	-0.12133774
127	0xbe715edb	-0.2357134
128	0xbea2727c	-0.3172797
129	0x3e87acfc	0.26499164
130	0x3e058a29	0.13040985
131	0xbea771f9	-0.32704142
132	0xbd294e1c	-0.041334257
133	0x3e5bced4	0.21465617
134	0xbdab69f1	-0.08369816
135	0x3e0a016b	0.13477103
136	0x3e6e4f3d	0.23272415
137	0xbd6ddf49	-0.05807427
138	0xbe46af98	-0.19402921
139	0x3e81793b	0.25287804
140	0xbcb221c2	-0.021744613
141	0x3d97bf08	0.07409483
142	0x3d1a4c00	0.037670135
143	0xbd8e006d	-0.06933675
144	0x3ea70a86	0.32625216
145	0xbea348de	-0.3189153
146	0x3dd2a834	0.102859885
147	0x3d9f44f3	0.07776823
148	0x3e2fc53d	0.17165084
149	0x3dff2afd	0.12459371
150	0xbe9e1cab	-0.30881247
151	0xbe97c6d4	-0.2964388
152	0x3e856a62	0.26057726
153	0x3d1368d4	0.035988644
154	0xbe778056	-0.2417005
155	0xbe681f0b	-0.22668092
156	0xbe5c96af	-0.21541856
157	0xbda26a96	-0.07930486
158	0xbe8b6e2a	-0.27232486
159	0xbe978d08	-0.29599786
160	0xbdd8d0db	-0.10586711
161	0x3b71de83	0.003690631
162	0xbd01ff46	-0.03173759
163	0xbe3e99ed	-0.18613406
164	0x3dec0964	0.115252286
165	0x3cf74696	0.030185025
166	0xbdf7fb0d	-0.12108431
167	0xbea48d32	-0.32138973
168	0x3e80e28c	0.25172842
169	0x3d76fe26	0.06030097
170	0x3e140b74	0.14457494
171	0xbdda6afa	-0.106649354
172	0x3eb443e4	0.35208046
173	0x3e8283d8	0.25491214
174	0x3e8442a0	0.2583208
175	0xbe54ad82	-0.20769313
176	0x3eb5018f	0.35352752
177	0xbeabc1c0	-0.33546257
178	0x3e932de1	0.2874594
179	0x3d12b96c	0.035821363
180	0xbe731461	-0.23738243
181	0xbe39425c	-0.1809172
182	0xbe38d2f2	-0.18049219
183	0xbea7f131	-0.32801202
184	0xbd3b99ad	-0.045800854
185	0x3d7dbf07	0.061949756
186	0x3e3718e7	0.17880593
187	0x3d29bb3a	0.04143832
188	0x3e8bdad9	0.27315405
189	0x3d507be3	0.050899398
190	0xbeb0779f	-0.34466264
191	0xbe87ed21	-0.26548102
192	0x3b5b5c4c	0.0033471761
193	0x3e803870	0.25043058
194	0x3eadd447	0.33951017
195	0x3e137293	0.14399175
196	0xbc3f04da	-0.011658872
197	0x3e000403	0.1250153
198	0x3eaf8739	0.34282854
199	0x3d90d2e4	0.07071474
200	0x3e96ac7a	0.29428464
201	0x3e6f232f	0.23353265
202	0x3e011a80	0.12607765
203	0xbe170f04	-0.14751822
204	0xbdd25a7d	-0.102711655
205	0x3e526820	0.20547533
206	0x3e906785	0.2820398
207	0xbeb397da	-0.3507679
208	0x3e802568	0.2502854
209	0x3e6c4625	0.23073633
210	0x3e86732b	0.2625974
211	0xbe834eb2	-0.25645977
212	0xbcade9a7	-0.021229578
213	0x3e2c0e9f	0.16802453
214	0xbe67e269	-0.22644962
215	0x3d1f1fb7	0.038848605
216	0x3e38763c	0.18013853
217	0xbe07de1b	-0.1326832
218	0xbe6011ce	-0.21881792
219	0xbe017ba4	-0.12644821
220	0x3eac72a9	0.3368123
221	0x3e95d7da	0.29266244
222	0x3e10ee53	0.14153413
223	0xbe98199c	-0.29707038
224	0x3c3757a0	0.011190325
225	0xbe56a824	-0.20962578
226	0xbe6e55db	-0.23274939
227	0xbe8374e7	-0.25675127
228	0xbe602a7d	-0.21891208
229	0xbdd926db	-0.10603114
230	0x3e79895a	0.24368802
231	0x3ca4df4b	0.020126006
232	0xbe4aaedd	-0.19793268
233	0xbe7f8801	-0.24954225
234	0x3e6971ae	0.22797272
235	0xbcb5fac2	-0.022214297
236	0xbea234a0	-0.31680775
237	0xbcf03f71	-0.029327126
238	0xbd14ed2a	-0.03635899
239	0x3d3763bc	0.04477285
240	0x3e839df1	0.25706437
241	0x3e94dece	0.29076236
242	0x3e02422c	0.12720555
243	0x3de7abcf	0.11312067
244	0x3d1823f9	0.03714368
245	0xbe9737e0	-0.29534817
246	0xbe16f6f1	-0.14742638
247	0xbe96ab82	-0.29427725
248	0x3e264a1d	0.1623921
249	0xbe0f9347	-0.14021026
250	0xbd7da2b3	-0.06192274
251	0xbe436bf3	-0.19084148
252	0x3e8c8109	0.27442196
253	0x3dc877dd	0.09788487
254	0x3c1a1e15	0.009406586
255	0x3e3f5724	0.18685585

sh_layer.bias f4 [12]
0	0x00000000	0.0
1	0x00000000	0.0
2	0x00000000	0.0
3	0x00000000	0.0
4	0x00000000	0.0
5	0x00000000	0.0
6	0x00000000	0.0
7	0x00000000	0.0
8	0x00000000	0.0
9	0x00000000	0.0
10	0x00000000	0.0
11	0x00000000	0.0

map_layer1.weight f4 [12, 12, 3, 3]
0	0x3d7d1c1d	0.06179439
1	0xbe56cc3a	-0.20976344
2	0xbda38933	-0.07985153
3	0xbe38745d	-0.18013139
4	0xbc85848a	-0.016298551
5	0xbdafc15e	-0.08581804
6	0xbddaea9a	-0.10689278
7	0x3dae7acd	0.08519516
8	0xbe5a00e9	-0.2128941
9	0xbe70aa64	-0.23502499
10	0xbe3812f9	-0.17975987
11	0x3cb839e7	0.022488547
12	0x3e618a70	0.22025466
13	0xbbede265	-0.0072596543
14	0x3e44d7a8	0.19222891
15	0xbe4c3aa3	-0.19944243
16	0x3de2b8e3	0.110704206
17	0x3d30757d	0.043080796
18	0xbe6bdae6	-0.23032722
19	0xbe134cb5	-0.1438473
20	0x3e18eea9	0.14934792
21	0x3d8b3ea7	0.06799059
22	0xbe084a21	-0.13309528
23	0xbd7f6a50	-0.062357247
24	0x3d65ef9b	0.05613671
25	0xbe11fa78	-0.14255702
26	0x3e0f5a34	0.13999254
27	0xbe3534f8	-0.17695987
28	0x3d5cd088	0.05390981
29	0x3bca832f	0.006180189
30	0xbbd0e111	-0.0063744863
31	0xbda51103	-0.08059885
32	0x3dbacf6a	0.09121592
33	0xbe38b80a	-0.18038955
34	0xbc82f066	-0.015983772
35	0xbe16d5f4	-0.14730054
36	0xbd990cc9	-0.07473142
37	0xbd422de7	-0.047407057
38	0x3e09c0af	0.13452409
39	0xbdd3e9f8	-0.103473604
40	0xbe26fbd7	-0.16307007
41	0xbdf7fb35	-0.12108461
42	0xbca35157	-0.019936247
43	0xbcf0fc4c	-0.02941718
44	0xbdac37f6	-0.08409111
45	0x3e708cb5	0.23491175
46	0xbe55ac87	-0.20866595
47	0x3c7f114e	0.015568091
48	0xbe0f4276	-0.13990197
49	0xbd39d42c	-0.04536836
50	0x3d6bfb05	0.057612438
51	0xbd8bc67e	-0.06824969
52	0x3e46ba29	0.19406952
53	0xbdb8298d	-0.089923
54	0x3e404b07	0.1877862
55	0xbde87d81	-0.11352063
56	0x3e640d3a	0.2227067
57	0x3dfaffe6	0.1225584
58	0x3dd69331	0.10477293
59	0x3e18e47f	0.14930914
60	0x3da05d4b	0.07830294
61	0xbe6cc9db	-0.23123877
62	0xbc382b86	-0.011240846
63	0xbdf56f36	-0.119841024
64	0xbe10eacf	-0.14152072
65	0xbde6f089	-0.11276347
66	0x3cc4611d	0.023972088
67	0x3d93e7ef	0.07221972
68	0xbe39e0a0	-0.18152094
69	0xbd67ba31	-0.05657405
70	0xbd9776f4	-0.073957354
71	0xbe4c248e	-0.1993582
72	0xbe0263cd	-0.12733383
73	0xbe1a5908	-0.15073025
74	0x3d997c0e	0.07494365
75	0x3dd235f7	0.10264199
76	0xbd3dba04	-0.046319976
77	0x3e6a2bcb	0.22868268
78	0xbbd08e19	-0.0063645956
79	0xbcea647e	-0.028612372
80	0x3ce89e00	0.028395653
81	0xbdcefe91	-0.101071484
82	0xbd853e36	-0.065060064
83	0xbe5110f1	-0.20416619
84	0x3e3eb931	0.18625332
85	0xbe2736fa	-0.16329566
86	0xbe1baa2e	-0.15201637
87	0xbe1a4870	-0.15066695
88	0xbde49bb1	-0.11162508
89	0xbdc5746d	-0.09641347
90	0xbd479588	-0.04872659
91	0xbbed3125	-0.0072385245
92	0x3dd5dbb3	0.10442295
93	0xbd819d71	-0.06328858
94	0x3dd237dd	0.10264561
95	0x3cb28b80	0.021795034
96	0xbcc21728	-0.023692682
97	0xbe2ecdec	-0.1707074
98	0x3e2b8c90	0.16752839
99	0x3e21284b	0.15738027
100	0xbdba4c34	-0.09096566
101	0xbcad2768	-0.021136954
102	0xbe2f49e7	-0.17118035
103	0xbe2d378b	-0.16915719
104	0xbe2276e5	-0.15865667
105	0x3d78c465	0.06073417
106	0x3e267da4	0.16258866
107	0x3e1811be	0.14850518
108	0xbd8da587	-0.069163375
109	0x3e6b4734	0.2297638
110	0xbdc04013	-0.09387221
111	0xbd2c45f5	-0.042058904
112	0x3e3feebd	0.18743415
113	0x3dcc7d84	0.09984878
114	0x3e1d924c	0.15387839
115	0x3dacf4c2	0.08445121
116	0xbdb45d69	-0.08806879
117	0xbe320d64	-0.1738792
118	0xbdf02dad	-0.11727462
119	0x3d1b74ea	0.037953295
120	0x3e22abc0	0.1588583
121	0x3e6aa175	0.22913153
122	0xbe15f910	-0.14645791
123	0xbd88e88f	-0.06684982
124	0xbb28c52b	-0.0025752287
125	0x3e0ded04	0.13859946
126	0x3e614966	0.22000656
127	0xbe377eac	-0.17919415
128	0x3e4dd4a6	0.2010065
129	0xbdddaffa	-0.108245805
130	0x3be49463	0.006975697
131	0x3cd071b2	0.02544484
132	0xbe4b154c	-0.19832343
133	0x3e62dcb1	0.221545
134	0x3e543c2a	0.20726076
135	0x3c6b42c2	0.014359178
136	0x3cca7d87	0.02471806
137	0x3e11a881	0.14224435
138	0xbd004b41	-0.031321768
139	0x3de7a48e	0.11310683
140	0x3db9ab29	0.09065849
141	0xbdec7871	-0.1154641
142	0x3dcd5a3d	0.10026977
143	0x3d8f9ba1	0.07012106
144	0xbe1cf8ea	-0.15329328
145	0xbd04de2a	-0.032438435
146	0xbd8a8093	-0.06762805
147	0xbd61b15f	-0.055100795
148	0x3d1d6253	0.038423847
149	0x3b1cb395	0.002391075
150	0x3e262fc9	0.16229166
151	0x3e40c4bd	0.1882505
152	0x3c6ca35f	0.014443248
153	0xbe0b942b	-0.1363074
154	0x3e29a8ff	0.16568373
155	0x3db53645	0.08848242
156	0x3dcdb45d	0.10044167
157	0xbd84d0a4	-0.064851075
158	0x3df8fb7d	0.121573426
159	0x3dc9e62d	0.09858356
160	0xbe59a1ac	-0.21253079
161	0xbde6ed35	-0.112757124
162	0x3d3b371c	0.045706853
163	0xbc3607a2	-0.011110218
164	0x3dd94ec6	0.10610728
165	0x3e6a2765	0.2286659
166	0xbd5c26f9	-0.053748105
167	0x3e02c9a7	0.12772237
168	0x3d92bd72	0.0716504
169	0x3e476117	0.1947063
170	0x3d72b999	0.05925903
171	0x3d86d408	0.065834105
172	0xbe2cebd5	-0.16886838
173	0xbe2a731c	-0.16645473
174	0xbad0e6f5	-0.0015937971
175	0x3e51058e	0.20412275
176	0xbe603cf8	-0.21898258
177	0x3d43c222	0.04779256
178	0x3dd56489	0.10419566
179	0x3d9f8f9d	0.07791064
180	0x3d3024b3	0.04300375
181	0x3c651a26	0.013983285
182	0xbdcc9963	-0.09990194
183	0xbc8f744c	-0.01751151
184	0x3df998c3	0.1218734
185	0x3e16701b	0.14691202
186	0x3d7a9b6a	0.06118337
187	0x3d58e73d	0.0529549
188	0xbd400ac7	-0.046885278
189	0xbb97b24e	-0.00462941
190	0xbd848cf3	-0.064721964
191	0x3e09a499	0.13441695
192	0xbe70c252	-0.23511627
193	0x3dceb370	0.10092819
194	0x3da8e07b	0.08245941
195	0x3dac1598	0.08402556
196	0xbde645df	-0.112437956
197	0xbe186077	-0.14880548
198	0xbe0965b0	-0.13417697
199	0xbe6f70c2	-0.23382857
200	0xbe5e6156	-0.21716818
201	0xbc3b2f73	-0.011424887
202	0x3e2117e2	0.15731767
203	0xbe673347	-0.22578155
204	0xbe18a967	-0.14908372
205	0xbd839f8a	-0.06426914
206	0xbe51bf59	-0.2048315
207	0xbe54d560	-0.20784521
208	0x3cbd8ef9	0.023139464
209	0xbd78ef25	-0.06077494
210	0x3e0c84dd	0.13722558
211	0x3e55cd76	0.20879158
212	0xbe1a3b51	-0.1506169
213	0xbe370920	-0.17874575
214	0xbe1194be	-0.14216897
215	0x3e484469	0.19557346
216	0xbd5425fc	-0.051794037
217	0x3da7583a	0.08171125
218	0xbc42b79c	-0.011884596
219	0xbe515d1e	-0.20445678
220	0xbe04a00e	-0.12951681
221	0x3dacb387	0.084326796
222	0xbe2e3c2a	-0.17015138
223	0x3c1b295f	0.009470313
224	0x3bf4e48f	0.0074735354
225	0x3dc80742	0.09767009
226	0xbdf4956c	-0.119425625
227	0x3daa4568	0.083140194
228	0x3e127576	0.1430262
229	0xbe1d9c53	-0.15391664
230	0x3e198039	0.1499032
231	0xbbd74604	-0.006569626
232	0x3e1dd417	0.15412937
233	0x3e30ae90	0.1725409
234	0xbe14986a	-0.14511266
235	0x3e1c5bac	0.15269345
236	0x3df37b5c	0.11888763
237	0xbd2261dd	-0.03964411
238	0x3d9eb902	0.07750131
239	0xbe3e4bf0	-0.18583655
240	0x3d06b45c	0.032886848
241	0xbe56e7e8	-0.20986903
242	0xbe560f62	-0.20904306
243	0xbe351506	-0.17683801
244	0xbe13eafd	-0.1444511
245	0x3d4f78e9	0.05065242
246	0x3e035ce5	0.12828405
247	0x3e36d7ff	0.17855833
248	0xbd430d2c	-0.047619984
249	0xbc368a73	-0.011141407
250	0xbc45d51c	-0.012074735
251	0x3e14ab16	0.14518389
252	0xbe665ca4	-0.22496277
253	0xbe295d12	-0.1653941
254	0x3e0c895c	0.13724273
255	0x3dea7f59	0.11450071

map_layer1.bias f4 [12]
0	0x00000000	0.0
1	0x00000000	0.0
2	0x00000000	0.0
3	0x00000000	0.0
4	0x00000000	0.0
5	0x00000000	0.0
6	0x00000000	0.0
7	0x00000000	0.0
8	0x00000000	0.0
9	0x00000000	0.0
10	0x00000000	0.0
11	0x00000000	0.0

map_layer2.weight f4 [12, 12, 3, 3]
0	0x3ce5dc4f	0.028059153
1	0xbd03b5f9	-0.032155965
2	0xbe651297	-0.22370373
3	0xbdacfb10	-0.08446324
4	0x3e20b2d3	0.15693216
5	0xbd36cf28	-0.044631153
6	0x3d7e53fa	0.062091805
7	0x3e1c2fd7	0.15252624
8	0x3d26715f	0.040635463
9	0x3dd28430	0.10279119
10	0x3d15f116	0.03660687
11	0xbe078fd0	-0.13238454
12	0xbe20ff1e	-0.1572232
13	0xbdb213f1	-0.0869521
14	0xbe4587df	-0.19290112
15	0x3dab65d5	0.08369032
16	0x3e34c057	0.17651497
17	0xbd9501e4	-0.07275751
18	0x3e06baec	0.13157243
19	0xbe35cc73	-0.17753772
20	0x3e68f696	0.22750315
21	0xbdc21c5b	-0.094780646
22	0xbe66cf27	-0.2253996
23	0x3d0fce47	0.03510883
24	0xbe70eea0	-0.23528528
25	0xbd36aee5	-0.044600386
26	0x3d2d2fa0	0.042281747
27	0xbdbaf4e4	-0.091287404
28	0xbd865786	-0.065596625
29	0xbe36c07f	-0.17846869
30	0xbe327134	-0.17425996
31	0x3e45c082	0.19311717
32	0xbdccc993	-0.09999385
33	0x3dbb78cc	0.091538996
34	0x3d66f9d5	0.056390602
35	0x3e2c85cb	0.16847913
36	0x3e4cc659	0.19997539
37	0xbe4c139f	-0.1992936
38	0xbd55d176	-0.05220171
39	0xbe09c096	-0.13452372
40	0x3c763e19	0.015029454
41	0xbd8fa8a3	-0.07014587
42	0x3dd3c40d	0.10340128
43	0xbbdee657	-0.006802361
44	0xbcacd7f9	-0.021099078
45	0x3e0e9eb3	0.13927726
46	0x3d9c2529	0.07624275
47	0xbe6739ed	-0.2258069
48	0x3c9a984c	0.018871449
49	0xbe1a3b2c	-0.15061635
50	0x3d52d11a	0.051468946
51	0x3d2d6127	0.04232898
52	0x3e406d77	0.18791758
53	0xbd97a015	-0.0740358
54	0x3e6693c7	0.2251731
55	0x3c3d2560	0.011544555
56	0x3e6b9dba	0.23009387
57	0xbe40f812	-0.18844631
58	0x3e290728	0.16506636
59	0x3e3ab74e	0.18233988
60	0xbdf8a723	-0.12141254
61	0xbe5d3c98	-0.21605146
62	0x3ce24931	0.027622791
63	0x3dd3659c	0.10322115
64	0x3e27cc3c	0.16386503
65	0xbe081cc4	-0.13292223
66	0xbd39a042	-0.04531885
67	0x3c8b05a1	0.016970458
68	0xbda9ef6f	-0.082976215
69	0xbe26ca0e	-0.16288015
70	0xbe265ef7	-0.16247164
71	0xbe385a22	-0.18003133
72	0x3e0897e0	0.13339186
73	0xbe490d91	-0.19634081
74	0x3e55f241	0.20893194
75	0xbd528788	-0.051398784
76	0xbe40f631	-0.18843915
77	0x3da0daff	0.0785427
78	0xbdce941b	-0.100868426
79	0xbe319604	-0.17342383
80	0xbe3882e9	-0.18018688
81	0xbd8b0d55	-0.06789652
82	0x3d8a2609	0.06745536
83	0xbe49e1fa	-0.1971511
84	0xbe13ed3e	-0.1444597
85	0xbd3f0216	-0.04663285
86	0xbe00e88c	-0.1258871
87	0xbd052880	-0.032509327
88	0x3d079d34	0.033108905
89	0x3dd9783a	0.106186345
90	0x3e375df6	0.17906937
91	0x3e6009fc	0.21878809
92	0xbb9424bb	-0.00452098
93	0xbe3ebd1e	-0.1862683
94	0xbb907135	-0.0044080266
95	0xbdece346	-0.115667865
96	0xbc57394a	-0.013136217
97	0xbe3ce051	-0.18444945
98	0x3e1a65bf	0.15077876
99	0xbd99f027	-0.075165085
100	0xbda24cb6	-0.07924788
101	0xbe217045	-0.15765484
102	0xbe5c0932	-0.21487883
103	0xbdc790ff	-0.09744453
104	0xbba330d0	-0.004980184
105	0x3dc7d0f2	0.0975665
106	0x3de61148	0.11233765
107	0x3e4d1292	0.20026615
108	0xbdf5702f	-0.11984288
109	0xbcedccb5	-0.029028276
110	0x3df6d184	0.12051681
111	0x3df5a4b7	0.119943075
112	0xbe0e3d4a	-0.13890567
113	0x3e22c8ed	0.1589696
114	0x3e5c23d8	0.21498048
115	0x3dc14efc	0.09438893
116	0xbe630a96	-0.22172007
117	0x3d45fd72	0.048337407
118	0xbe07eb97	-0.13273464
119	0x3d6aa2dd	0.057284225
120	0xbdc88336	-0.097906515
121	0x3da92f1a	0.08260937
122	0xbe54093d	-0.20706649
123	0xbe6ee4c4	-0.23329455
124	0xbc947b4b	-0.018125197
125	0x3e1553b4	0.14582711
126	0xbe50b755	-0.20382436
127	0xbe61af8a	-0.22039619
128	0xbdd7432d	-0.1051086
129	0x3d4b48d9	0.04963002
130	0x3ddf969d	0.10917399
131	0x3e177991	0.14792468
132	0x3dc36009	0.095398016
133	0x3d8db2df	0.069188826
134	0x3d9cb48a	0.076516226
135	0x3e63080c	0.22171038
136	0x3e07e401	0.1327057
137	0x3d815f61	0.0631702
138	0x3d8bf496	0.068337604
139	0xbcb0bf1d	-0.021575505
140	0x3e0d4f1e	0.13799712
141	0x3d6303c0	0.0554235
142	0x3d8e88ca	0.06959684
143	0xbd2f4a78	-0.04279563
144	0x3d8f16df	0.06986784
145	0x3e452f25	0.19256265
146	0xbe30c067	-0.17260896
147	0xbe55d7a6	-0.20883045
148	0x3e56b6a7	0.20968114
149	0xbcaaf0f4	-0.020866849
150	0xbdd71257	-0.10501545
151	0x3e6caca7	0.23112737
152	0xbde749f8	-0.11293405
153	0x3d0da4e1	0.03458107
154	0xbe21ecb5	-0.15812953
155	0x3d91c0dc	0.07116863
156	0x3dcc7161	0.09982563
157	0xbe6e9808	-0.23300183
158	0x3e4bda16	0.19907412
159	0xbe68c9b7	-0.22733198
160	0xbe4290d6	-0.19000563
161	0x3e27c4d2	0.16383675
162	0x3da34fa5	0.07974175
163	0x3e5fb4d2	0.21846321
164	0xbe6473de	-0.22309825
165	0x3da115d6	0.07865493
166	0xbe0c4d0a	-0.13701263
167	0x3e6ef0ad	0.23333998
168	0xbe5a0cc7	-0.21293937
169	0x3d9fe456	0.078072235
170	0xbb7c3573	-0.0038484007
171	0xbdc23396	-0.094824955
172	0x3c1e32f4	0.009655703
173	0xbe04def0	-0.12975669
174	0x3e4d87be	0.20071313
175	0xbdf90239	-0.12158627
176	0x3e223931	0.1584213
177	0xbce7ff32	-0.028319929
178	0x3d92647f	0.07148074
179	0xbe49d8c7	-0.197116
180	0xbe2ed6dd	-0.17074151
181	0xbe6eeb45	-0.23331936
182	0xbe5ba0da	-0.21448079
183	0x3e463411	0.193558
184	0x3e69c108	0.22827542
185	0xbe6172b6	-0.22016415
186	0xbe3d5e1f	-0.18492936
187	0xbdff7204	-0.12472919
188	0xbe09df64	-0.13464123
189	0x3e047ee5	0.12939031
190	0x3bbc52c7	0.0057471725
191	0xbe3ac16b	-0.18237846
192	0x3d51af4e	0.051192574
193	0x3e557668	0.2084595
194	0xbcecf072	-0.028923247
195	0x3e029de9	0.1275555
196	0x3d96aaac	0.07356772
197	0x3c947c00	0.018125534
198	0x3e557e3c	0.20848936
199	0x3dbd3b3d	0.092398144
200	0x3cf0a316	0.02937464
201	0x3e4933dc	0.19648689
202	0xbe5bf163	-0.214788
203	0xbe59e440	-0.21278477
204	0x3e06c9dc	0.1316294
205	0xbd6e8569	-0.0582327
206	0xbdf8f0bc	-0.121552914
207	0xbdf41bd4	-0.1191937
208	0x3db10283	0.08643057
209	0x3d25f931	0.04052085
210	0x3dbbda60	0.09172511
211	0x3c2e1f4e	0.010627581
212	0xbda3a0cd	-0.07989655
213	0x3e194915	0.14969285
214	0xbd999071	-0.07498253
215	0x3d7d52ea	0.06184665
216	0xbe4a0c95	-0.19731362
217	0xbe58f2c4	-0.21186358
218	0x3aaa1f2e	0.0012979263
219	0xbd7be641	-0.061498884
220	0xbbc30b2b	-0.005952259
221	0xbe1bb769	-0.15206684
222	0xbce3f2d0	-0.027825743
223	0x3e341b9d	0.17588659
224	0x3e1cb2e9	0.15302624
225	0x3da00d55	0.07815043
226	0xbd634d52	-0.05549366
227	0xbe20127f	-0.15632056
228	0xbe18c425	-0.14918573
229	0xbd19262f	-0.03738993
230	0xbc7220bf	-0.014778315
231	0xbde548ab	-0.11195501
232	0xbd6a5e83	-0.05721904
233	0x3cd2f292	0.025750432
234	0x3def0e84	0.116726905
235	0x3e43ef08	0.19134152
236	0x3d7f32bf	0.062304255
237	0x3e59cd45	0.2126971
238	0x3e2d1081	0.16900827
239	0xbdcabfa4	-0.09899834
240	0x3e1a25ee	0.15053532
241	0xbe1b56de	-0.15169856
242	0x3e18daae	0.1492717
243	0xbbb9f633	-0.005675101
244	0xbb838f43	-0.004014881
245	0xbe2d3d3e	-0.16917893
246	0xbdf302ee	-0.11865793
247	0x3e5572ff	0.20844649
248	0xbe0439db	-0.12912695
249	0x3d734365	0.059390444
250	0x3e59241e	0.21205184
251	0xbda4c4a1	-0.080453165
252	0x3d0c21ea	0.03421203
253	0x3d696dcd	0.05698948
254	0xbe326789	-0.17422308
255	0x3d93d002	0.07217409

map_layer2.bias f4 [12]
0	0x00000000	0.0
1	0x00000000	0.0
2	0x00000000	0.0
3	0x00000000	0.0
4	0x00000000	0.0
5	0x00000000	0.0
6	0x00000000	0.0
7	0x00000000	0.0
8	0x00000000	0.0
9	0x00000000	0.0
10	0x00000000	0.0
11	0x00000000	0.0

ex_layer.weight f4 [48, 12, 1, 1]
0	0xbedf9efa	-0.43675977
1	0xbe971b9a	-0.29513246
2	0x3e27360e	0.16329214
3	0x3e1a18d9	0.15048541
4	0xbe04661a	-0.12929574
5	0xbddf8884	-0.1091471
6	0x3e98533f	0.29751012
7	0x3e8570c5	0.260626
8	0x3ef79acf	0.48360297
9	0x3f174c17	0.5910048
10	0xbe07d43e	-0.13264558
11	0x3e81689b	0.2527512
12	0x3e8b9ea5	0.27269474
13	0x3f2d5727	0.6771111
14	0x3e3e5cac	0.18590039
15	0x3dc50412	0.09619917
16	0xbe1c50cf	-0.15265201
17	0x3e934325	0.28762165
18	0xbe6345f0	-0.22194648
19	0x3e31e322	0.173718
20	0xbe05d9d2	-0.13071373
21	0xbef9b156	-0.4876811
22	0x3eebefb4	0.46081316
23	0x3ec8d857	0.39227554
24	0x3f034f22	0.5129262
25	0x3ef27da5	0.47361484
26	0xbe6b04c1	-0.22951032
27	0x3e8f80af	0.28027865
28	0xbd6fdfb7	-0.05856296
29	0x3d3481c8	0.04406908
30	0x3f2cba19	0.6747146
31	0xbe941667	-0.28923342
32	0xbee338c5	-0.4437925
33	0x3f160c63	0.5861265
34	0x3f080be4	0.53143144
35	0xbe397d94	-0.1811431
36	0xbea1200c	-0.31469762
37	0x3f299d8f	0.6625604
38	0x3f23dfef	0.6401357
39	0xbeeb0f21	-0.4590998
40	0xbebd65bd	-0.36991683
41	0x3edbfcca	0.429663
42	0x3e3b4bb7	0.18290602
43	0xbe208128	-0.15674269
44	0x3ee142f2	0.43996388
45	0xbf2ad906	-0.667374
46	0xbf2698ff	-0.65077204
47	0x3f0c18fe	0.54725635
48	0x3ea3ef49	0.32018498
49	0xbec2d654	-0.38054144
50	0x3f178f64	0.5920317
51	0xbf14960c	-0.58041453
52	0x3cb8a452	0.022539292
53	0xbe9f210d	-0.31079903
54	0xbf2cdb29	-0.6752191
55	0xbe92942b	-0.28628668
56	0x3ef9deb1	0.48802713
57	0x3da77d30	0.081781745
58	0xbea56199	-0.32301024
59	0x3ca154b1	0.019693704
60	0x3f17ebdc	0.5934427
61	0xbe3220cf	-0.17395328
62	0xbf113d6a	-0.56734335
63	0x3e6afc23	0.22947745
64	0xbee6de45	-0.45091453
65	0x3e7c41ad	0.24634428
66	0xbed06472	-0.40701634
67	0x3e9b21fa	0.3029936
68	0xbf30d24d	-0.69070894
69	0x3ec377d3	0.38177356
70	0xbcb6a59d	-0.022295767
71	0xbde30548	-0.11084992
72	0xbe1ace76	-0.15117821
73	0x3e4d9677	0.20076929
74	0xbebb946d	-0.36636677
75	0x3e32e683	0.17470746
76	0xbe119383	-0.14216428
77	0x3ec3703c	0.38171566
78	0xbf23b551	-0.6394854
79	0xbe846c6f	-0.25863978
80	0xbef457ae	-0.47723144
81	0x3ed1b73c	0.4096011
82	0xbb1d2e9e	-0.0023984085
83	0x3e81bf07	0.25341055
84	0xbf2c238f	-0.6724176
85	0xbeac3221	-0.33631995
86	0xbeec8f44	-0.46203053
87	0xbef8b5c0	-0.48576164
88	0xbf335a7a	-0.7005993
89	0x3f1f00a2	0.6211034
90	0xbdf192a1	-0.11795545
91	0xbea6af16	-0.32555455
92	0x3f07a3da	0.5298439
93	0x3e8ca329	0.2746823
94	0x3dc0cd34	0.094141394
95	0x3d002008	0.031280547
96	0x3e978353	0.2959238
97	0xbd079522	-0.03310121
98	0xbcb9a7d4	-0.022663034
99	0x3ed2e6fe	0.41191858
100	0x3ca5899e	0.020207223
101	0x3f341581	0.7034531
102	0x3e563235	0.2091759
103	0xbf34f5b0	-0.7068739
104	0xbf05a6cc	-0.52207637
105	0xbeb03c10	-0.34420824
106	0xbe1d8822	-0.15383962
107	0x3f18ec63	0.597357
108	0x3ee5b242	0.44862562
109	0x3f2c1159	0.6721397
110	0x3f042eb3	0.5163376
111	0xbf11fb85	-0.57024413
112	0x3eb4062b	0.35160956
113	0xbe61eff7	-0.22064196
114	0xbe99871e	-0.299859
115	0x3f1e9b20	0.6195545
116	0xbf1ffd5f	-0.6249599
117	0xbde64312	-0.112432614
118	0x3efec0ec	0.49756563
119	0xbe228fa4	-0.15875107
120	0x3ec8b29f	0.39198777
121	0x3f1e9040	0.6193886
122	0xbdfc57ba	-0.1232142
123	0xbece48d0	-0.40289927
124	0x3e849bfc	0.25900257
125	0x3ed9d715	0.42546907
126	0xbe97109f	-0.29504868
127	0x3e827335	0.2547852
128	0xbf19e010	-0.6010752
129	0xbf014919	-0.50502163
130	0x3eb126f7	0.3460004
131	0xbec6426c	-0.3872255
132	0xbec7d18a	-0.39027053
133	0xbea42d0c	-0.32065618
134	0xbf1dbaf3	-0.61613387
135	0x3f203419	0.62579495
136	0xbf1ef793	-0.6209652
137	0x3f280e94	0.65647244
138	0xbf0145f9	-0.50497395
139	0x3d809a18	0.06279391
140	0x3e759d9d	0.23985906
141	0x3e4e235b	0.20130675
142	0x3cdc9f45	0.026931414
143	0x3f341398	0.703424
144	0xbcf03c15	-0.029325524
145	0x3ad54521	0.0016271212
146	0x3e649f45	0.22326382
147	0xbeee17f9	-0.46502665
148	0x3f17b6d7	0.59263366
149	0x3efff6b3	0.49992904
150	0xbf00e63e	-0.5035132
151	0x3dc915f3	0.098186396
152	0xbf1c66cb	-0.6109435
153	0xbf2625f1	-0.64901644
154	0xbeca691b	-0.39533314
155	0x3c88feba	0.016723026
156	0xbe8c4f64	-0.2740432
157	0xbe1b40cb	-0.15161435
158	0xbd9e8e73	-0.07742014
159	0x3eab894c	0.33503187
160	0x3c26c0be	0.010177789
161	0xbec5836a	-0.38576823
162	0x3e6caa74	0.23111898
163	0x3f127042	0.5720254
164	0x3e98245c	0.2971524
165	0x3e483a53	0.19553499
166	0xbf11376c	-0.5672519
167	0xbe99cd79	-0.30039576
168	0xbefb2c58	-0.4905727
169	0x3f04fa35	0.51944286
170	0x3e14507f	0.14483832
171	0xbf2cf10f	-0.67555326
172	0x3e051d66	0.12999496
173	0xbd9f8b76	-0.07790272
174	0x3f20175a	0.6253563
175	0xbe7b583e	-0.2454538
176	0x3e018c6f	0.12651227
177	0xbd316fd5	-0.043319542
178	0x3d68a455	0.056797344
179	0x3f04a791	0.51818186
180	0xbcbe891c	-0.023258738
181	0x3f1316ef	0.5745687
182	0x3ceed9a5	0.029156515
183	0x3f202150	0.6255083
184	0xbf286431	-0.6577788
185	0xbe3bb557	-0.18330894
186	0x3eaea983	0.34113702
187	0xbf1aa820	-0.6041279
188	0x3ddf351f	0.10898804
189	0xbec608f8	-0.38678718
190	0xbe89861e	-0.26860136
191	0x3ed985d1	0.42484906
192	0xbf17c74d	-0.59288484
193	0xbe9adc0d	-0.3024601
194	0xbeb6f548	-0.3573401
195	0xbf1442c7	-0.57914394
196	0x3e5486eb	0.20754592
197	0x3d274e6e	0.04084628
198	0x3ef902a3	0.48634824
199	0x3eccb59e	0.39982313
200	0x3ea2df1a	0.31810838
201	0xbce21e0f	-0.027602224
202	0x3ee460ae	0.4460501
203	0xbef210f6	-0.47278565
204	0xbf2cd60f	-0.6751413
205	0x3f2539a7	0.64541095
206	0xbdf31691	-0.118695386
207	0xbf075608	-0.5286565
208	0x3e341708	0.1758691
209	0x3e883027	0.26599237
210	0x3e8f2281	0.27956012
211	0x3e333e9c	0.17504352
212	0x3e15b0d5	0.14618237
213	0x3ed9f9c6	0.42573375
214	0xbd5bdab2	-0.05367536
215	0x3eba3926	0.36371726
216	0xbece7871	-0.40326265
217	0xbf33e94d	-0.70277864
218	0x3ce96138	0.02848874
219	0xbf10e965	-0.5660613
220	0xbef2d3d2	-0.4742723
221	0xbeb01f40	-0.34398842
222	0xbe541fc4	-0.20715243
223	0xbf27adca	-0.65499556
224	0xbef87d3a	-0.4853304
225	0xbee71bfa	-0.45138532
226	0xbf27efdf	-0.6560039
227	0xbef14f52	-0.4713083
228	0xbf270592	-0.65242875
229	0xbe3434e2	-0.17598298
230	0xbf1467f4	-0.5797112
231	0x3e04e23e	0.1297693
232	0xbf12f37f	-0.57402796
233	0xbee973bf	-0.4559612
234	0xbf2fccdb	-0.6867196
235	0x3f0353e6	0.51299894
236	0x3e36ecb8	0.17863739
237	0xbe7d3e9f	-0.2473092
238	0xbf139bc9	-0.57659584
239	0x3ce1849e	0.027529057
240	0x3e240dec	0.16020936
241	0x3e81828c	0.25294912
242	0xbc2006f0	-0.009767279
243	0xbea7b0e5	-0.32752147
244	0xbf2e85c9	-0.6817289
245	0x3d2e7ef1	0.04260153
246	0xbf157f58	-0.58397436
247	0x3f345fc9	0.70458657
248	0x3f135026	0.5754417
249	0x3e0e8644	0.13918406
250	0xbf24fd46	-0.64448965
251	0xbe833be7	-0.2563164
252	0xbe76d003	-0.24102788
253	0x3f12cda9	0.5734506
254	0x3e8f6f1b	0.28014454
255	0x3e2eba62	0.17063287

ex_layer.bias f4 [48]
0	0x00000000	0.0
1	0x00000000	0.0
2	0x00000000	0.0
3	0x00000000	0.0
4	0x00000000	0.0
5	0x00000000	0.0
6	0x00000000	0.0
7	0x00000000	0.0
8	0x00000000	0.0
9	0x00000000	0.0
10	0x00000000	0.0
11	0x00000000	0.0
12	0x00000000	0.0
13	0x00000000	0.0
14	0x00000000	0.0
15	0x00000000	0.0
16	0x00000000	0.0
17	0x00000000	0.0
18	0x00000000	0.0
19	0x00000000	0.0
20	0x00000000	0.0
21	0x00000000	0.0
22	0x00000000	0.0
23	0x00000000	0.0
24	0x00000000	0.0
25	0x00000000	0.0
26	0x00000000	0.0
27	0x00000000	0.0
28	0x00000000	0.0
29	0x00000000	0.0
30	0x00000000	0.0
31	0x00000000	0.0
32	0x00000000	0.0
33	0x00000000	0.0
34	0x00000000	0.0
35	0x00000000	0.0
36	0x00000000	0.0
37	0x00000000	0.0
38	0x00000000	0.0
39	0x00000000	0.0
40	0x00000000	0.0
41	0x00000000	0.0
42	0x00000000	0.0
43	0x00000000	0.0
44	0x00000000	0.0
45	0x00000000	0.0
46	0x00000000	0.0
47	0x00000000	0.0

deconv.weight f4 [48, 1, 7, 7]
0	0x3dfdcb9e	0.123923525
1	0xbd4ff6c1	-0.050772432
2	0xbdee08cc	-0.116227716
3	0x3b96b74a	0.0045994865
4	0x3dd76bc5	0.10518602
5	0xbdc98b8c	-0.098410696
6	0x3c384913	0.011247891
7	0x3dd72a7a	0.10506149
8	0x3e077c9c	0.13231128
9	0x3c652638	0.013986163
10	0x3d8725ca	0.065990046
11	0xbd885347	-0.06656509
12	0x3d76fa18	0.0602971
13	0xbd2478ae	-0.04015415
14	0xbd599525	-0.05312075
15	0x389b8925	7.416521e-05
16	0xbbd83cb7	-0.0065990346
17	0xbca82193	-0.020523822
18	0xbe0678f3	-0.13132076
19	0x3c962093	0.01832608
20	0x3d959e85	0.07305626
21	0xbe0b071e	-0.13576934
22	0xbe0b7543	-0.1361895
23	0xbd751eaa	-0.059843697
24	0xbd38ae33	-0.045088004
25	0x3d65b361	0.056079272
26	0xbd9d86d3	-0.07691731
27	0xbdcc134a	-0.099646166
28	0xbdf06f8e	-0.11740027
29	0x392a5b6e	0.00016246524
30	0xbd778338	-0.060427874
31	0x3cfd2dee	0.03090569
32	0xbd7511b3	-0.059831332
33	0xbd60d413	-0.05488975
34	0x3d979d3e	0.074030384
35	0xbdf205be	-0.118175015
36	0x3dfaee6c	0.122525066
37	0x3d13645c	0.035984382
38	0x3e0ba343	0.13636498
39	0xbde84688	-0.11341578
40	0x3b7f6d6e	0.0038975137
41	0xbe0441d0	-0.1291573
42	0x3df70015	0.120605625
43	0xbdf23208	-0.11825949
44	0xbdfd1533	-0.12357559
45	0x3d59f0ee	0.053208284
46	0x3c5d57a5	0.013509666
47	0x3e0d715d	0.13812776
48	0xbd07adee	-0.033124857
49	0x3dd998ba	0.106248334
50	0x3d7468ca	0.059670247
51	0xbe052eca	-0.1300613
52	0xbcc87093	-0.024467742
53	0xbd24d04e	-0.040237717
54	0x3ba4bdb7	0.0050274986
55	0x3d4e9737	0.05043718
56	0xbd6cfd58	-0.057858795
57	0x3d588fb7	0.052871432
58	0x3e05e09e	0.13073966
59	0x3c4525b7	0.012032918
60	0x3bf3d16e	0.0074407374
61	0x3e0c5ae4	0.13706547
62	0xbd7b1518	-0.061299413
63	0x3dd04797	0.10169905
64	0x3e0642de	0.13111445
65	0xbd760b6e	-0.060069494
66	0xbde3c4f3	-0.111215495
67	0xbce07fae	-0.027404632
68	0xbde018d3	-0.10942235
69	0xbc970e00	-0.018439293
70	0xbdf5c348	-0.120001376
71	0xbd6e5c9c	-0.058193788
72	0x3b7f8b6e	0.0038993019
73	0x3dbad79c	0.091231555
74	0x3dbe97e7	0.09306317
75	0xbd6e5405	-0.058185596
76	0xbcc5df41	-0.024154307
77	0x3cde06c1	0.02710283
78	0xbd1a3b3c	-0.037654147
79	0xbdd1429c	-0.10217783
80	0x3baf1293	0.0053427904
81	0x3e09b0ba	0.13446322
82	0xbd51d737	-0.051230635
83	0x3c9b5d80	0.018965483
84	0xbd948e93	-0.072537564
85	0x3dac5167	0.08413964
86	0xbc627ba5	-0.0138234245
87	0x3da71b7a	0.081595376
88	0x3d976f4a	0.073942736
89	0xbd8d6a9c	-0.069051
90	0xbda7dcda	-0.08196421
91	0xbc412d37	-0.011790565
92	0x3dd74e51	0.105129845
93	0x3d16bfbc	0.036803946
94	0xbc203b00	-0.009779692
95	0xbdc4367e	-0.09580706
96	0x3dfa5503	0.12223246
97	0xbcaa9b80	-0.020826101
98	0x3cb3e08a	0.021957655
99	0x3e02a6cc	0.1275894
100	0xba9abadc	-0.0011804956
101	0xbc8f315c	-0.017479591
102	0xbda6dbb5	-0.081473745
103	0x3b56ce01	0.0032776596
104	0x3da140ca	0.07873686
105	0x3dd4ce67	0.103909306
106	0xbc91bcb7	-0.017790182
107	0x3defb8a8	0.11705142
108	0x3dc8fb25	0.09813527
109	0x3cba7c2e	0.022764292
110	0xbc75e6a5	-0.015008603
111	0xbd852bf0	-0.06502521
112	0xbc97f59c	-0.018549733
113	0x3a561493	0.0008166518
114	0x3cad2e65	0.021140287
115	0x3dc42a15	0.09578339
116	0x3df0c861	0.11756969
117	0x3dd7634c	0.10516986
118	0x3cc80077	0.024414284
119	0xbb21c125	-0.0024681774
120	0x3dd3193e	0.10307549
121	0xbe0807cd	-0.13284226
122	0x3c4f29b7	0.012644223
123	0xbd9571e3	-0.07297113
124	0xbe0b8d6d	-0.13628168
125	0x3bd8c7b7	0.0066156047
126	0xbdae42f3	-0.08508863
127	0x3ddbfd7a	0.10741706
128	0x3d924803	0.071426414
129	0x3dd6db1e	0.10491012
130	0x3d5cd461	0.053913478
131	0x3ca4328a	0.02004363
132	0xbd0dab97	-0.03458747
133	0xbd6370ce	-0.0555275
134	0x3db018cc	0.0859848
135	0x3b504adc	0.00317829
136	0xbdb4737e	-0.08811091
137	0x3d9f9ab7	0.077931814
138	0x3d2e3b2e	0.042536907
139	0xbcf7f2dc	-0.030267172
140	0xbe0526b0	-0.1300304
141	0x3e0f93fc	0.14021295
142	0x3d851ec7	0.06500011
143	0x3d73b6fc	0.05950068
144	0x3cbe3425	0.023218224
145	0x3d279a1c	0.040918455
146	0x3d7c3225	0.06157126
147	0x3e0cd0eb	0.13751571
148	0xbd9da98c	-0.07698354
149	0x3daed171	0.085360415
150	0x3e0bd6b7	0.13656126
151	0xbd9890c3	-0.07449486
152	0xbe1069aa	-0.14102808
153	0xbd563105	-0.052292842
154	0xbd6d4293	-0.05792482
155	0x3ddcfa51	0.107899316
156	0xbce9d4b8	-0.028543815
157	0xbd8a6c5c	-0.06758949
158	0x3dafbc9c	0.08580896
159	0xbb85cedc	-0.0040834974
160	0xbdb8c8ca	-0.090226725
161	0xbbc9dab7	-0.006160106
162	0x3daf2c55	0.085533775
163	0xbe002118	-0.12512624
164	0xbdc0ac2a	-0.09407838
165	0x3d253365	0.040332217
166	0x3db9bd95	0.09069363
167	0xbdb255e7	-0.08707791
168	0x3d5f96aa	0.054587044
169	0x3d232fe5	0.039840598
170	0xbd22a300	-0.03970623
171	0x3d1e6045	0.03866603
172	0x3d835c17	0.06414049
173	0xbcc13fdc	-0.02359002
174	0xbd89cffe	-0.067291245
175	0xbc8bb880	-0.01705575
176	0xbdd62723	-0.104566835
177	0x3d305f37	0.043059554
178	0x3d8ac14a	0.06775148
179	0xb9f8724a	-0.00047387398
180	0x3dc4f187	0.0961638
181	0xbe123db8	-0.14281356
182	0xbdc76bea	-0.0973738
183	0x3dc580c5	0.096437015
184	0xbe04b19c	-0.12958378
185	0xbd751b78	-0.05984065
186	0x3de34f93	0.11099162
187	0x3d6b8d21	0.057507638
188	0xbdaed18a	-0.0853606
189	0xbd0db5e5	-0.034597296
190	0xbd381ef3	-0.04495139
191	0x3d881f13	0.06646552
192	0xbdefb0d3	-0.117036484
193	0xbd371761	-0.04470003
194	0x3e0602da	0.13087025
195	0xbda42275	-0.08014385
196	0x3b64bbb8	0.0034901928
197	0xbca8bbca	-0.020597357
198	0xbb6e796e	-0.0036388296
199	0x3cfac7ae	0.030612793
200	0x3cfb009c	0.030639939
201	0xbcd14adc	-0.025548391
202	0xbdea8d35	-0.11452714
203	0xbddc4f7a	-0.107573465
204	0x3d975505	0.07389263
205	0x3e028f3e	0.12749955
206	0xbdc04725	-0.0938857
207	0xbda67397	-0.08127516
208	0xbddf4d3a	-0.10903402
209	0x3c9eafc0	0.019370914
210	0xbe123cd5	-0.14281018
211	0xbd8f577c	-0.06999108
212	0xbd5e27dc	-0.05423723
213	0xbd9b6cb7	-0.07589095
214	0xbce44293	-0.027863776
215	0xbd5788ce	-0.0526207
216	0xbd473757	-0.04863676
217	0xbda4daf7	-0.08049577
218	0x3de49743	0.111616634
219	0x3d5364ce	0.051609807
220	0x3de4fcf1	0.11181057
221	0x3e09904c	0.13433951
222	0xbda31905	-0.079637565
223	0xbc807c00	-0.015684128
224	0xbdbb1935	-0.09135667
225	0xbd733098	-0.059372514
226	0x3d8527f7	0.06501763
227	0x3d2b0b13	0.041758608
228	0xbc804b80	-0.015661001
229	0x3dc72fa5	0.09725884
230	0x3d66092e	0.0561611
231	0x3a8ee36e	0.001090152
232	0xbbba3fb7	-0.005683865
233	0xbe116c38	-0.14201438
234	0x3d66970a	0.056296386
235	0xbd7296d8	-0.059225887
236	0xbdbc5417	-0.09195726
237	0xbd91863c	-0.07105681
238	0x3d9f5a03	0.0778084
239	0x3d872ad3	0.06599965
240	0x3cf69093	0.030098235
241	0x3dde9825	0.10868863
242	0x3da05a03	0.078296684
243	0x3de4c543	0.11170437
244	0x3dddb445	0.10825399
245	0x3d8149f0	0.063129306
246	0x3d52aa97	0.05143222
247	0x3e0e67da	0.13906804
248	0x3e0189ab	0.12650172
249	0x3d6fab0e	0.05851274
250	0x3d6b5458	0.057453483
251	0xbdd6de97	-0.104916744
252	0x3be26a01	0.0069096093
253	0x3c225537	0.009908012
254	0x3d9d5b6a	0.076834515
255	0xbdcd231a	-0.10016461

deconv1.weight f4 [4, 48, 7, 7]
0	0x3c84db31	0.0162178
1	0x3c2fec8a	0.010737548
2	0x3cb75592	0.02237967
3	0x3d1e4971	0.038644258
4	0x3d014c33	0.03156681
5	0xbd2d54f2	-0.04231734
6	0xbd1c678d	-0.03818469
7	0xbd36c19a	-0.044618227
8	0xbced5130	-0.028969377
9	0x3c5bb9f1	0.013411031
10	0xbc9c0b71	-0.019048424
11	0x3b9357e7	0.0044965628
12	0xbc76ca94	-0.015062947
13	0x3d1e495b	0.038644176
14	0xbc838af3	-0.016057467
15	0xbcbb54f8	-0.022867665
16	0xbd0a2352	-0.03372509
17	0xbd0695d4	-0.03285773
18	0xbc49797b	-0.01229703
19	0xbcc0eb7f	-0.023549793
20	0xbd361704	-0.044455543
21	0x3ce626dd	0.028094703
22	0x3cc86fbc	0.024467342
23	0x3d09b7c5	0.033622522
24	0xbaf62482	-0.0018779191
25	0x3d2352ed	0.039874006
26	0x3d442d0a	0.047894515
27	0xbd3afc18	-0.04565057
28	0xbd03628b	-0.0320764
29	0xbc8739ee	-0.016507115
30	0x3ce874ae	0.02837595
31	0xbc811bbd	-0.015760297
32	0x3d087d35	0.03332253
33	0x3cd8219e	0.026383217
34	0x3c3fca43	0.011705938
35	0x3c4510f6	0.01202797
36	0xbd27824f	-0.040895756
37	0x3cd008f9	0.025394903
38	0x3ce0d339	0.027444469
39	0xbd4559b3	-0.048181247
40	0x3d1addb9	0.037809107
41	0xbd2cf34a	-0.042224206
42	0xbc632dbd	-0.013865885
43	0x3d26d526	0.040730618
44	0xba6181d0	-0.00086024124
45	0xbd270604	-0.04077722
46	0xbd032d88	-0.032025844
47	0xbd0d26ee	-0.034460954
48	0x3d456bb0	0.048198402
49	0xbd4afce0	-0.049557567
50	0x3c9a3d36	0.018828016
51	0xbcf7dd20	-0.030256808
52	0xbd4c6ded	-0.04990952
53	0x3c9650b3	0.018349027
54	0xbca9d340	-0.020730615
55	0xbc842978	-0.016133055
56	0x3cc3fdbc	0.0239247
57	0xbc6266d7	-0.013818464
58	0x3a1844fb	0.0005808619
59	0x3d0e5747	0.034751203
60	0x3bfae995	0.0076572397
61	0xbcb81e5d	-0.022475416
62	0xbd3fd950	-0.046838105
63	0xbc2e475b	-0.01063713
64	0x3d0783c5	0.03308465
65	0xbbd1b9e9	-0.006400336
66	0x3bbd57c4	0.0057782847
67	0xbd3e4ac0	-0.046458006
68	0x3d281317	0.04103383
69	0xbc45f72d	-0.012082857
70	0xbd266344	-0.04062201
71	0xbc19d97f	-0.009390234
72	0x3d06adc3	0.032880556
73	0xbd1b5f4e	-0.037932687
74	0x3c60b617	0.013715289
75	0x3cd87552	0.02642313
76	0x3c934a04	0.01797963
77	0x3d2e3d28	0.042538792
78	0xbd056ffe	-0.032577507
79	0x3d1a1e97	0.03762683
80	0x3cf30179	0.029663788
81	0x3b6bb23b	0.0035964388
82	0xbcb14134	-0.021637537
83	0xbd25e5dd	-0.040502418
84	0xbd272c46	-0.040813707
85	0x3d13b6f9	0.03606317
86	0x3d313ad2	0.043268986
87	0xba86bee4	-0.0010280279
88	0x3d3df698	0.04637775
89	0x3caa9c21	0.020826401
90	0x3c544912	0.012956874
91	0xbd06f9b5	-0.032952983
92	0x3ada9e7e	0.0016679314
93	0xbb9bfc3d	-0.0047602938
94	0x3cc9ef44	0.024650224
95	0x3d014ef0	0.03156942
96	0xbd391413	-0.04518516
97	0x3d4562fe	0.04819011
98	0x3d3b93ce	0.045795254
99	0xbc1faece	-0.0097462665
100	0x3aac662c	0.0013153008
101	0xbce2a7ce	-0.027667906
102	0xbc9e38ae	-0.019314136
103	0x3b998738	0.004685309
104	0xbc513aa2	-0.012770327
105	0x3d286708	0.041113883
106	0x3d21fe73	0.039549302
107	0xbd39ec73	-0.04539151
108	0xbce18fa7	-0.02753432
109	0x3ce7b6bc	0.028285377
110	0xbc748d2a	-0.014926234
111	0x3d2437b4	0.040092185
112	0x3caff842	0.021480683
113	0x3d0251b7	0.03181621
114	0x3d0d3d77	0.034482446
115	0xbc94efde	-0.018180784
116	0x3c5d1ed4	0.0134961195
117	0xbd07674c	-0.033057496
118	0xbaf1100a	-0.0018391621
119	0xbc83d073	-0.016090607
120	0xbcc5e99e	-0.024159249
121	0xbcc6d717	-0.024272485
122	0xbcc49330	-0.023995966
123	0x3be096f4	0.0068539325
124	0x3ce888cb	0.02838554
125	0xbd3683d3	-0.04455931
126	0x3cdecf2f	0.027198402
127	0xbcea89c0	-0.028630137
128	0x3ca88578	0.020571455
129	0x3d2456cd	0.040121842
130	0x3d2e74a5	0.04259171
131	0x3d3927b7	0.04520389
132	0x3d472fb9	0.048629496
133	0x3c04423e	0.008072434
134	0x3d0f7460	0.035023093
135	0x3d204a6b	0.03913347
136	0xbcfa2d3a	-0.030539144
137	0x3d145f7a	0.036223866
138	0x3c59a0e5	0.013282989
139	0xbb74e7b9	-0.0037369563
140	0x3d1f9338	0.038958758
141	0xbc1cdda8	-0.009574331
142	0xbcce3089	-0.025169628
143	0x3cddb769	0.027064996
144	0x3d40041a	0.04687891
145	0xbc9ab215	-0.018883744
146	0x3d49e06a	0.049286284
147	0x3cca9acd	0.024732018
148	0xbc863f79	-0.016387688
149	0xba3d56c1	-0.0007222705
150	0xbb8bfab5	-0.00427183
151	0x3b8bb940	0.004264027
152	0xbb664cf3	-0.003514108
153	0xbd3ae5b3	-0.045629214
154	0x3ccd371b	0.02505069
155	0xbc10b450	-0.008832052
156	0xbc9dd774	-0.019267775
157	0xbb38b017	-0.002818113
158	0x3cb89dde	0.022536214
159	0xbc1f03ef	-0.009705528
160	0xbd2c503a	-0.042068698
161	0x3ce18324	0.027528353
162	0x3c4710ae	0.012149973
163	0xbc5fb638	-0.013654284
164	0xbd21c258	-0.03949198
165	0x3d0d9764	0.034568205
166	0x3d270290	0.04077393
167	0x3b230a64	0.002487802
168	0xbd0e04e6	-0.03467264
169	0x3c35bd13	0.011092442
170	0xbd321def	-0.04348558
171	0x3d176201	0.0369587
172	0x3bc8ab83	0.0061239614
173	0x3bbba71e	0.005726709
174	0xbc6a1a9c	-0.014288571
175	0x3bb41f4b	0.0054968945
176	0x3c766d23	0.015040669
177	0xbaf4f817	-0.0018689659
178	0x3d2375bf	0.039907213
179	0x3ca5d098	0.020241067
180	0x3d16e0cb	0.036835473
181	0x3d13dd30	0.036099613
182	0x3d36d103	0.044632923
183	0xbcb0bb1e	-0.0215736
184	0xbd1b050b	-0.037846606
185	0xbd0f0917	-0.034920778
186	0x3b4b1b95	0.0030991782
187	0x3cbfeaad	0.023427332
188	0x3bcdd284	0.006281199
189	0x3c3317b1	0.010930941
190	0x3ca5cb30	0.020238489
191	0xbd4e0a84	-0.050302997
192	0xbcdcae12	-0.026938472
193	0x3c89418d	0.01675489
194	0x3bfa6169	0.0076410067
195	0x3c9ebc98	0.019377038
196	0xbd331df1	-0.043729726
197	0x3c8d4cb7	0.017248495
198	0x3d3748ba	0.04474709
199	0x3d4536ed	0.048148084
200	0x3cc61e45	0.024184356
201	0xbb4bee81	-0.0031117501
202	0x3c00b644	0.0078559555
203	0xbb630b11	-0.0034644047
204	0x3c675da3	0.014121446
205	0xbd0bda63	-0.034143817
206	0x3d08075e	0.03321015
207	0xbc035241	-0.008015216
208	0xbcdc96e9	-0.026927428
209	0x3d016932	0.031594463
210	0x3cea4080	0.02859521
211	0x3a7ddd94	0.0009684202
212	0xbc5cc7e1	-0.013475389
213	0x3d4c1133	0.04982109
214	0x3ca3648c	0.019945405
215	0x3cda2821	0.026630463
216	0x3cbc6b94	0.023000516
217	0x3d18136d	0.0371279
218	0x3c38023e	0.011231003
219	0xbcee402d	-0.029083336
220	0x3d2d1aa4	0.042261735
221	0xbd2d6c97	-0.042339887
222	0x3b5bd941	0.0033546241
223	0xbd2aa8ed	-0.041665006
224	0x3c9c5aca	0.01908626
225	0x3bd52e67	0.0065057757
226	0x3cf55f09	0.029952543
227	0x3ca058c6	0.01957358
228	0x3d344ed5	0.044020493
229	0xbc30e95b	-0.010797824
230	0xbc831a8f	-0.016003875
231	0xbcf69bbb	-0.030103555
232	0x3c9f725f	0.019463716
233	0xbd351697	-0.044210996
234	0xbd4149c0	-0.047189474
235	0x3d138683	0.036016952
236	0x3cc9ddf4	0.024641968
237	0xbc86b476	-0.016443472
238	0x3bf76850	0.007550277
239	0xbd2e4ce5	-0.0425538
240	0xbab68399	-0.0013924717
241	0xbd393d66	-0.04522457
242	0xbd08cb9f	-0.033397313
243	0xbc29caea	-0.01036332
244	0x3c39a6df	0.011331289
245	0x3cbfe039	0.023422347
246	0xbd1c2865	-0.03812446
247	0xba10685a	-0.00055087137
248	0x3d45b140	0.048264742
249	0xbcd25a05	-0.02567769
250	0xbcbbd0f0	-0.022926778
251	0x3d24bb16	0.04021748
252	0x3c92be73	0.017913079
253	0xbb4d28c3	-0.0031304813
254	0xb9b26635	-0.00034026956
255	0xbd4bdb8e	-0.04976993

deconv1.bias f4 [4]
0	0x00000000	0.0
1	0x00000000	0.0
2	0x00000000	0.0
3	0x00000000	0.0
